DQN_weights/qnt_0.pt (torch, 23087 bytes, 8 tensors)

weight f4 [10, 3]
000000 22 0a a7 be aa 96 bd 3e 6c 8a 74 3e 35 0f 8d 3e
       -0.32624918 0.3702901 0.23880929 0.27550665
000010 28 88 f6 3e 57 8e 0f be 3b d5 d0 3d 50 87 a0 be
       0.48150754 -0.14019142 0.101969205 -0.31353235
000020 d8 b5 06 3f 33 96 5d 3e 63 c4 e2 3e ae b8 cb 3e
       0.5262122 0.21639328 0.44290456 0.39789337
000030 ab 45 1f be 69 05 00 be ef 37 1f 3e 6b cc 54 be
       -0.1555392 -0.12502064 0.1554868 -0.20781104
000040 d1 2b aa be 27 24 01 bf 9c 6b 8e 3e 30 40 b1 3e
       -0.33236554 -0.5044579 0.27816474 0.34619284
000050 fd 54 bd 3e 02 d1 ca be ee 3e 71 be 85 e5 16 3e
       0.36978903 -0.39612585 -0.23559162 0.14735992
000060 91 bd aa 3e 95 70 51 be db 47 c1 3d a0 51 c4 be
       0.33347753 -0.20453103 0.094375335 -0.38343525
000070 0b b1 1c bd 3c 91 06 bd
       -0.03825478 -0.03285335

bias f4 [10]
000000 2d 7b 8b be 9b ec e8 be 4e 5a ed 3d c1 08 18 3f
       -0.27242413 -0.45493016 0.1158949 0.5938836
000010 14 2e 3c 3d 9c 2a e8 be c7 97 85 be 14 50 66 bd
       0.04594238 -0.45345008 -0.2609236 -0.056228712
000020 d4 75 a1 3e 40 72 0b 3f
       0.31535208 0.54471207

weight f4 [20, 10]
000000 69 ee 2c bc b4 61 c3 be c3 4d 6b bd 58 cf b1 3d
       -0.010554888 -0.3816048 -0.057447206 0.08682126
000010 48 e0 94 3e a5 b0 4a bd 55 e0 a7 3d 69 57 90 3d
       0.29077363 -0.049484868 0.08197085 0.07047922
000020 cc 49 9f 3d 9e be ae bd 5e c4 a9 3e 2a 6d 2e bd
       0.077777475 -0.08532451 0.3315763 -0.042584576
000030 82 e7 92 3d 44 85 71 be 54 e5 5d 3e 72 bd 9c be
       0.07173063 -0.23585993 0.21669513 -0.30613285
000040 bb 97 9c 3e 19 af 29 3e 65 bb ea 3d 06 51 80 3e
       0.3058451 0.165707 0.11461524 0.25061816
000050 a8 a1 3b be 8d 28 dd 3d 22 10 5f be 32 13 9e 3e
       -0.18323386 0.1079875 -0.21783498 0.3087402
000060 da 8c 5d be 52 5b 4d be 37 4d a2 3b ff 65 61 3e
       -0.21635762 -0.20054367 0.0049530524 0.22011565
000070 d6 42 72 3e e4 a5 44 bd 75 cf 7c bd 13 88 68 bd
       0.23658308 -0.048009768 -0.061721284 -0.056770395
000080 83 60 3f 3e aa 1e ae be 65 3b 08 bd a4 80 63 bd
       0.1868916 -0.3400777 -0.033259768 -0.055542603
000090 ea 04 5e be 65 5d b9 3d 33 7f 05 bb 33 e2 9b 3d
       -0.21681562 0.09051017 -0.0020370006 0.076115035
0000a0 1f 53 6a 3d da b2 f9 3d 2a 0e 01 3d fa 4e ab 3e
       0.057208177 0.12192316 0.03150765 0.33458692
0000b0 c7 f4 a8 3e 86 78 29 be 90 6c c8 3c 08 25 59 3e
       0.3299925 -0.16549882 0.02446583 0.21205533
0000c0 a3 3c f2 bd 2f 63 c8 bc a6 b1 3b 3d 39 3f f4 3d
       -0.11827972 -0.024461357 0.045823716 0.11926121
0000d0 76 47 61 be 86 71 18 bd 3d 3b dc 3d 4d 24 2d 3e
       -0.21999916 -0.03721764 0.10753486 0.16908379
0000e0 61 4e f3 3d f5 07 88 3e 35 31 2b 3c 76 87 a2 bd
       0.11880184 0.2656857 0.010448744 -0.079359934
0000f0 66 56 11 3d ec f4 5a 3e 99 8a ad 3d 88 db 14 be
       0.035482787 0.21382493 0.08473701 -0.1453687
000100 65 b4 68 be a0 d7 99 3d a6 68 8b bc c8 58 c9 3c
       -0.22725065 0.0751183 -0.017017674 0.024578467
000110 5f 0b 4e 3e 11 c3 8f 3d 1b d1 02 be ed 6f 4f be
       0.20121525 0.07019628 -0.1277508 -0.2025754
000120 b2 5b 4d be 5c 88 18 3e a1 b0 9c 3d bb 4b 75 be
       -0.2005451 0.14895767 0.07650877 -0.2395467
000130 44 d0 ab 3e e5 bc 55 3e 76 d5 81 3e 38 a9 1e 3e
       0.33557332 0.20872839 0.2535817 0.1549424
000140 3f 70 0a 3e 19 e1 ea 3d aa e2 5e be 32 ae 1e be
       0.13519381 0.11468715 -0.21766153 -0.15496138
000150 fd 7c 8a be dc 0c 87 3e f0 23 b5 3e d3 f7 45 be
       -0.27048483 0.26376998 0.3537898 -0.19332819
000160 f2 57 f6 3d ab d8 b1 bd 44 84 28 be a7 cb 6f 3e
       0.12028493 -0.08683904 -0.16456705 0.23417531
000170 e5 6b eb 3d 0b 4a 06 bc 85 bf 5c bd 73 fb f3 bd
       0.114951886 -0.008196364 -0.053893585 -0.119131945
000180 bf 8d fd 3d 97 1f e7 3d 2b 28 d8 3c 46 6a 49 be
       0.123805515 0.11285322 0.026386341 -0.19669446
000190 e3 d8 17 3e 79 89 a5 be 4b fc 35 bb 0b 06 1b 3e
       0.1482883 -0.32331446 -0.0027768787 0.15139024
0001a0 04 29 03 3e 20 7b 6f be a6 84 31 3e f3 6e 9c bb
       0.12808615 -0.23386812 0.17335758 -0.0047739684
0001b0 76 ff 14 be 94 3d 43 3e 25 73 72 3e 6f 86 24 3e
       -0.14550576 0.19066459 0.23676737 0.16066907
0001c0 47 85 18 be 85 05 93 bd 46 c3 f0 bd b0 29 ee bd
       -0.14894591 -0.07178787 -0.117559955 -0.11629045
0001d0 0a 97 51 3d a5 da 47 be f2 56 65 be fd f6 27 bd
       0.051169433 -0.19517 -0.22396448 -0.04100703
0001e0 e8 89 91 3e 60 0d 64 be bb bc 74 3b 31 52 ab bd
       0.28425527 -0.22270727 0.0037343937 -0.08365286
0001f0 41 8b 2a be d5 97 6f 3e 66 00 fd 3d 40 45 1a be
       -0.16654684 0.23397763 0.123535916 -0.1506548
000200 28 a6 2b be 22 b3 83 3e 0f e0 87 3e a3 cf 89 3e
       -0.16762602 0.25722605 0.2653813 0.26916227
000210 d2 ac 79 3e 43 f7 7b bc 18 57 a0 3e b0 5c e7 3d
       0.24382332 -0.015378776 0.31316447 0.112969756
000220 d5 80 59 3e 83 26 f2 3d 84 f4 4f be e9 f2 d8 bc
       0.21240552 0.11823752 -0.20308119 -0.026483016
000230 b1 c8 19 3e 0d 95 4b bd 53 75 90 3e 58 e8 02 bd
       0.15017964 -0.049702693 0.2821451 -0.03195986
000240 5c 3e 59 bd 5c 5b 0a 3d eb 6b 9e 3c 0a 99 03 be
       -0.053037986 0.033778533 0.019338569 -0.12851349
000250 ed f2 54 3c 37 cf 4e 3e d1 58 29 bd 40 28 e0 bd
       0.012997371 0.20196234 -0.041344468 -0.10945177
000260 a7 0b a6 be 8d ad 6c 3a fe 11 c7 3d 2b 3b 67 3e
       -0.32430765 0.00090285466 0.097202286 0.22581165
000270 dd e0 39 3e be fb 84 3d 32 6c 1e 3e c4 8a 77 3d
       0.18152185 0.064933285 0.1547096 0.06043507
000280 e3 87 84 3e 8d 0c 33 3d f5 50 89 be 0a 44 82 be
       0.25884923 0.04371314 -0.26819578 -0.25442535
000290 fe f1 1b bd 37 83 28 bd 21 0d 65 3e 1b 8c 71 3e
       -0.03807258 -0.04114076 0.2236829 0.23588602
0002a0 84 ab 0d be 12 44 7d be 3d 3a ae bc 33 33 52 be
       -0.1383496 -0.24732998 -0.021268005 -0.20527343
0002b0 b6 d8 4b 3e 77 df b3 3d f8 6c f2 bd 45 06 d4 bc
       0.19906887 0.08782857 -0.118371904 -0.025881896
0002c0 8a ae 96 3d b4 5c 88 be 24 8d 19 be fa d2 14 be
       0.073575094 -0.26633227 -0.14995247 -0.14533606
0002d0 c0 98 cd 3d 1c fc 3f bd 22 95 0f 3e 29 f1 8e be
       0.100389004 -0.04687129 0.14021733 -0.27918366
0002e0 fc 66 01 3e 95 6a 4a be be 8c 6e be 73 54 f4 3d
       0.12636942 -0.1976722 -0.23295876 0.1193017
0002f0 d0 a1 be bc f4 2f 8e 3d 1c 24 29 bd 85 58 09 3b
       -0.023270518 0.0694274 -0.041294202 0.0020957303
000300 a4 71 f4 3c 3f e5 62 3e 61 95 d2 bc d0 61 fb 3d
       0.029839344 0.22157763 -0.025705995 0.12274516
000310 9f 21 8d be d3 00 79 be 5c b9 96 3e e9 60 9b bd
       -0.27564713 -0.2431672 0.29438293 -0.075868435

bias f4 [20]
000000 f0 50 62 3e 84 c8 24 be a6 07 44 3e 1b 17 70 3e
       0.22101188 -0.16092116 0.19143543 0.23446314
000010 06 1e e3 bd 2d a1 9b 3e 9f ab 16 3e 12 f0 10 3d
       -0.11089711 0.30396405 0.14713906 0.0353852
000020 f2 f7 ff bd 2c 1b 35 3d 1f 36 74 3e 6b 15 53 3e
       -0.12498464 0.044215366 0.2384877 0.20613639
000030 3c 34 89 bd 31 81 9e be 7a 54 76 3e bc 04 4a be
       -0.06699416 -0.3095794 0.24055663 -0.19728369
000040 45 5a 85 be c5 d0 85 3e 4e 4c 2f 3e 92 8b 98 be
       -0.26045433 0.2613584 0.17118952 -0.29793984

weight f4 [36, 20]
000000 d8 45 cc bc 6b c3 22 3d ec 25 3c be 6a 68 8f bd
       -0.024935648 0.039737146 -0.18373841 -0.07002337
000010 1c 6c c4 3c 4e 80 11 be 8f 04 3f 3e b3 07 7a 3d
       0.023977332 -0.142091 0.18654083 0.0610425
000020 b4 13 0f 3e 2e d3 72 3e 36 3a e0 3d 80 7d 36 be
       0.1397236 0.23713371 0.10948603 -0.17821312
000030 24 75 5f be a5 24 0d 3e 13 b4 2e 3e a5 6a 9d 3c
       -0.2182203 0.1378351 0.1706088 0.019215891
000040 be 7e 58 3e 20 7e 8e bd 8f c5 54 3d f8 b5 b4 3d
       0.21142098 -0.0695765 0.05194622 0.0882377
000050 01 45 5a be 2f 96 c6 bc bf 1b a1 bd 95 13 85 bd
       -0.21315385 -0.024241535 -0.0786662 -0.064978756
000060 14 70 34 bd 97 f3 97 3d 15 d2 0e 3e 44 5f d5 3d
       -0.0440522 0.07419508 0.13947327 0.10418561
000070 a6 61 df bd 99 74 af 3d b5 45 eb 3c 7a 19 4b 3c
       -0.10907297 0.08567161 0.028719762 0.012396211
000080 b5 d7 2a 3d 73 e2 04 3d 81 3d c7 bc f7 dd 00 3d
       0.04170962 0.03244252 -0.02432132 0.031461682
000090 b8 29 ef 3d 68 7b 56 3d 19 c7 19 3e 6e b7 19 3d
       0.11677879 0.052363783 0.15017356 0.037528448
0000a0 8f 35 89 3d 38 61 12 bc 0c 75 8d bd 64 75 ea bd
       0.066996686 -0.008934312 -0.069070905 -0.11448172
0000b0 c8 5d cb bd c9 95 b7 3d bc c7 83 3c fa 29 82 3d
       -0.09929997 0.08964116 0.016086452 0.06355663
0000c0 cf 9f 1d be 23 88 de 3d 34 29 9f 3b 9d 71 37 3e
       -0.15392993 0.1086581 0.0048572067 0.17914434
0000d0 70 c5 15 3e f2 33 eb bd 31 42 c7 bd 70 5d 78 bd
       0.14626098 -0.11484517 -0.09729422 -0.060635984
0000e0 88 3c d4 3d 5c 4c 98 bd 34 c1 32 3e 32 6f 2a 3e
       0.10363108 -0.074364394 0.17456514 0.1664398
0000f0 6f 08 5b 3e 91 8e 8e bc a3 76 bc bd fa 7c 74 bd
       0.21389936 -0.017401965 -0.09202316 -0.0596895
000100 5d c0 27 3e b6 64 6d bd 65 d6 c6 3c 14 5f e9 bd
       0.16381975 -0.057957374 0.024272153 -0.11395088
000110 23 82 88 bd ce 44 16 3e d1 da 55 be 1c c9 12 3d
       -0.066654466 0.14674684 -0.20884253 0.035836324
000120 25 f8 32 3e b7 57 95 3e b4 d0 67 bb f0 e0 92 bd
       0.17477472 0.29168484 -0.00353722 -0.0717181
000130 24 eb 2e bd 30 78 12 3e 4c ec 1a 3e 56 00 2e be
       -0.042704716 0.1430366 0.15129203 -0.16992316
000140 31 89 9f 3d 03 3b 9e be 43 4d 90 3d 1a 24 0e 3e
       0.07789839 -0.30904397 0.070459865 0.13880959
000150 b4 85 6e 3e fc 1a 8a 3e a7 38 df bd 41 69 bc be
       0.23293191 0.26973712 -0.108994775 -0.36799052
000160 fa d0 ac bd d8 2c b0 3c 6a 76 3e be 80 27 a8 bc
       -0.084382966 0.021505758 -0.18599859 -0.020526648
000170 24 08 1c be ea db 76 3e 4b af c1 3d a6 67 0c 3e
       -0.1523748 0.24107328 0.094572626 0.13711414
000180 c0 6b c4 bb 02 77 15 be 39 dc 68 be 11 39 81 3c
       -0.00599429 -0.14596179 -0.22740258 0.015774282
000190 14 e1 6b be 7c 2d 2f bc d2 c1 b0 3b 93 93 99 bc
       -0.23035079 -0.010691997 0.005394199 -0.018747127
0001a0 6f 3b 0f be cd 10 f0 3c 53 1c 26 3d 2f 01 cc bc
       -0.13987516 0.029304886 0.040554356 -0.024902908
0001b0 fd ee 8b bd 9a 5a 3f bc 6d b9 44 b9 e7 59 ae bd
       -0.06832693 -0.011679316 -0.00018761093 -0.08513241
0001c0 a8 d6 88 3d 01 8a 05 bd c1 40 02 be 2c c5 4e 3d
       0.066815674 -0.032602314 -0.12720014 0.050481007
0001d0 00 22 e1 3c 6d b1 ac bd ae 83 55 3d 41 d9 d8 3b
       0.027482033 -0.08432279 0.052127533 0.0066176956
0001e0 7a 6b 3a be 36 d4 81 bc c2 8e 4e 3e b6 39 b5 bd
       -0.18205062 -0.01584826 0.20171645 -0.08848898
0001f0 47 e1 7d 3c 39 c3 60 bd 98 46 36 3d 70 3e 1a be
       0.015495605 -0.05487368 0.044500917 -0.1506288
000200 93 8b 91 be 1b 12 c1 3d ad 9a a6 bc f6 ec 48 3e
       -0.284268 0.094272815 -0.020337427 0.19621643
000210 19 23 91 3e ea 7b 20 be f0 1a af 3c 3a 5b b6 bd
       0.2834709 -0.1567227 0.02137515 -0.08904119
000220 f4 01 27 bd c9 9d 9c 3d 5c 53 f2 3d fd 17 99 3c
       -0.040773347 0.07647283 0.11832306 0.018688196
000230 17 fb 46 be 6b 61 3c bc 35 a2 8b 3c 7b 8f 73 3d
       -0.1943172 -0.011497836 0.01704512 0.059463006
000240 58 1c c5 3d a1 e9 2c 3d 84 64 ba bc 46 ea c1 3c
       0.09624547 0.042214993 -0.022753008 0.02367128
000250 41 cb 47 3e e1 06 14 be 55 97 dc bd e7 c8 12 be
       0.19511129 -0.14455749 -0.10771052 -0.1433445
000260 ce ea 26 3e 2f 53 29 bd 52 cb 5b bd 70 e2 01 3e
       0.16300508 -0.041339096 -0.0536607 0.12684035
000270 2a f9 61 3e 07 d1 de bd f9 fe eb 3d 94 07 a1 3d
       0.22067705 -0.108797126 0.115232415 0.078627735
000280 bd 25 53 be 25 e3 3b 3e 15 05 97 bd 02 d5 ea 3c
       -0.20619865 0.18348368 -0.07374016 0.028666023
000290 cc 32 18 be 2e 04 aa bd b1 18 b2 bc c0 ef 56 3e
       -0.14863127 -0.083015785 -0.02174029 0.20989895
0002a0 2a 68 23 be 81 53 a9 3d d2 cc 2e be c5 b6 ba 3c
       -0.15957704 0.0826788 -0.1707032 0.02279223
0002b0 15 78 e6 bd 44 37 1d 3c 4f cd 17 3e 45 3d 5f 3d
       -0.112533726 0.009595696 0.14824413 0.05450179
0002c0 e0 dd 01 3c 1a 78 18 be ab b1 51 3d bf f6 a9 bd
       0.007926434 -0.14889565 0.051194828 -0.08299016
0002d0 f4 34 6f be 66 84 f7 bd 83 28 d3 bc 67 d1 00 3e
       -0.23360044 -0.120858 -0.025776153 0.1257988
0002e0 14 ec 20 be 45 f6 0d 3c 67 63 de 3d 91 9f 9c 3c
       -0.15715057 0.008664672 0.10858803 0.019119056
0002f0 d8 c9 32 bc 6e 67 9a 3d 06 1d ed 3d f6 a2 8a bc
       -0.010912381 0.07539259 0.115778014 -0.016923409
000300 e8 2b fc 3d 2e cc dd bc f7 9c 5b be 15 58 18 3d
       0.12313062 -0.0270749 -0.21446596 0.037193377
000310 bc 3e 0f be 8f e5 87 bb d1 6b 82 3d 19 7f 05 bd
       -0.13988775 -0.0041472386 0.063682206 -0.032591913
000320 80 59 a5 bd e6 fb 08 3e 09 d7 0b be fe f8 67 bd
       -0.080737114 0.13377342 -0.13656248 -0.05663394
000330 b4 88 22 3e 53 05 19 3d 97 9d a2 3d e5 46 84 3d
       0.1587246 0.037358593 0.07940214 0.064588346
000340 2a 44 b5 3a ce 88 46 bd 56 e0 fa bd 0c f0 08 bd
       0.0013829519 -0.04847031 -0.1224982 -0.03343205
000350 f0 2e fc 3d b4 55 24 bd 4b 98 1c bd 30 64 40 bd
       0.1231364 -0.040120795 -0.038231175 -0.046970546
000360 44 fd 4a bd 97 96 e6 bc 06 4a a1 3c 50 6f 8d 3d
       -0.04955794 -0.028147979 0.019688617 0.06905997
000370 25 d4 44 3e b5 02 dd bc 0a 07 b1 3d 6b d3 ed bd
       0.19221552 -0.02697883 0.08643921 -0.116125904
000380 b2 52 50 3e a3 bb 72 bd ab 2a 2a 3e dc d1 4c bd
       0.20344046 -0.059260976 0.16617839 -0.050004825
000390 18 92 c5 3c 99 92 e3 bd cc 4f d7 bd 1d b5 31 3e
       0.024117514 -0.11111946 -0.10513267 0.17354245
0003a0 68 86 3a 3e e8 c3 7e bd 3a c0 a1 3d ed ff 74 be
       0.18215334 -0.06219855 0.078979924 -0.23925753
0003b0 11 96 05 be ba 48 09 be 7c c5 d8 3d 95 4f ce bd
       -0.13045527 -0.13406649 0.10584542 -0.10073773
0003c0 23 a9 a1 3d f4 ce 0d 3c f2 bc 07 be 29 1c a7 bc
       0.078935884 0.0086552985 -0.1325567 -0.02039917
0003d0 10 10 cf 3d 3a 18 cd bc 30 e1 d1 bc 38 82 86 ba
       0.101104856 -0.025035966 -0.025620073 -0.0010262197
0003e0 e7 49 26 bd c2 63 ba 3d 71 98 63 bd f5 ea 1b 3d
       -0.040597823 0.091010585 -0.0555653 0.03806587
0003f0 45 ec 78 bd f8 22 9e bd 16 5b 27 bd 3a 15 7d 3e
       -0.0607722 -0.077215135 -0.04085835 0.24715129

bias f4 [36]
000000 1e 33 6c bc 57 c4 6a be fe 5f 25 be 9b 26 10 3e
       -0.014416484 -0.2292646 -0.161499 0.14077227
000010 99 e1 dd bd f6 ce 2f 3e 67 c4 b3 3d cb d9 90 bd
       -0.10834045 0.17168793 0.08777695 -0.07072791
000020 b1 c9 5c 3e f3 4e 82 3d 80 7d d8 bd 85 4f 24 bd
       0.21561314 0.063627146 -0.10570812 -0.0401149
000030 71 bc 57 bd c6 c9 17 bd ca d6 55 3e 9c 23 4e bc
       -0.052669946 -0.03705766 0.20882717 -0.012581732
000040 44 02 b4 bd 73 84 16 be 9d 61 c4 bd f2 17 27 bd
       -0.08789495 -0.14698963 -0.09588931 -0.04079432
000050 4f 5c c3 3c e5 eb a2 3c 54 d0 72 3c 3f be 42 be
       0.023847727 0.019887874 0.014820177 -0.19017886
000060 33 9f fe 3d 16 14 d2 bb 71 f9 33 3e f6 96 9b 3d
       0.124327086 -0.006411086 0.17575623 0.07597153
000070 b0 97 b4 bc 8b 87 2d bd 6b dc 2f bd fd 3a 3a be
       -0.022044986 -0.042365592 -0.042934816 -0.18186565
000080 73 8f d9 bd ae 41 cf 3c 03 85 0f 3e 31 2e 22 3d
       -0.10623064 0.025299873 0.14015584 0.039594833

weight f4 [101, 36]
000000 56 cb c6 bd 54 d7 03 be 29 29 04 3d 1c 90 0f be
       -0.09706752 -0.1287511 0.032265816 -0.14019817
000010 aa 63 b4 be 61 e5 eb bd b5 a0 ba be 1c bf 29 3d
       -0.35232288 -0.1151836 -0.36450735 0.04144202
000020 57 98 98 bc 49 39 0d bd c9 bf 22 3e ff 0d 11 bf
       -0.018627329 -0.03447846 0.15893473 -0.5666198
000030 00 6e d2 3a 27 bb aa 3c 64 96 d5 bd 8b 0f 2e be
       0.0016054511 0.020841194 -0.10429075 -0.16998117
000040 f7 96 13 be 4c c9 57 3e bc bf 28 3e 81 53 28 bd
       -0.14413057 0.21072882 0.16479391 -0.04109526
000050 de 67 e7 be d4 72 dc be 58 48 18 bf 0c 6e 96 3d
       -0.45196432 -0.43056357 -0.5948539 0.073452085
000060 f5 d4 65 bd de 15 45 3e e1 5f ec be ca 54 15 be
       -0.056111295 0.19246623 -0.461669 -0.14583126
000070 1b bc 0a bf d8 f8 b4 3c 6d 1c 9c bd a6 9d f8 3d
       -0.54193276 0.022091314 -0.07622609 0.12139444
000080 65 a6 90 be 8e 88 ff bc e1 aa eb be 73 2e e5 be
       -0.2825195 -0.031193044 -0.46028808 -0.44762
000090 2c 31 30 be ce 34 d5 3d 29 51 a4 bd ba 74 7f be
       -0.17206258 0.10410462 -0.080232926 -0.24946871
0000a0 49 f7 de be 52 49 e8 3d fd 10 04 bf d2 41 c5 3d
       -0.4354804 0.1134211 -0.5158842 0.09631695
0000b0 f4 4c b7 bd 18 fd 15 be 24 68 0a bd 1a d7 88 be
       -0.089502245 -0.14647329 -0.033790722 -0.2672661
0000c0 80 b7 b5 3a 18 67 d1 3d 2a 62 5b be 2d 37 3e be
       0.0013863891 0.10224742 -0.21424165 -0.18575735
0000d0 3b 16 a9 3d e0 df 39 3e 43 d5 2f 3e 6f 39 30 be
       0.08256193 0.18151808 0.17171197 -0.17209409
0000e0 73 76 a7 be 0f d3 f6 be 38 a8 8b be fb f1 40 bc
       -0.32707557 -0.482079 -0.27276778 -0.011776443
0000f0 cf 89 46 bd 95 86 ad 3d a9 45 c7 be cc 44 ad bd
       -0.04847127 0.08472935 -0.38920334 -0.084603876
000100 af 05 09 bf 5e 20 0e 3e ff 03 1b bc 3b c2 7c bd
       -0.535243 0.13879535 -0.009461402 -0.06170867
000110 bd 39 2d bd 37 4f d4 3c 11 b4 04 bf c4 52 09 bf
       -0.04229139 0.025916679 -0.5183726 -0.53641915
000120 36 c0 bb bd 27 ca 03 be 3e 9e b7 bd b0 1d 92 be
       -0.09167521 -0.12870084 -0.08965729 -0.28538275
000130 81 a2 b4 be 22 0d af 3d 11 54 17 bf 69 55 39 bd
       -0.3528023 0.08547427 -0.5911265 -0.04524747
000140 2d 92 15 3c 66 56 16 3e 2e 91 c2 3d 0f af 8c be
       0.009129089 0.14681396 0.09500347 -0.2747731
000150 00 70 66 bb ea 76 d8 3d b6 22 8f be fc d6 10 3b
       -0.0035161972 0.10569556 -0.2795617 0.0022100797
000160 ee fe 07 be b7 ef ad bd b3 5c 41 3e 5d 1a 23 be
       -0.13280842 -0.084929876 0.18883018 -0.15928026
000170 bb 63 07 bf 44 c9 9f be 29 06 d4 be 83 fb 3d be
       -0.5288655 -0.3120824 -0.4141095 -0.18552975
000180 a9 7e c1 bd f7 13 8a bd 31 df df be a4 6a a9 be
       -0.09447987 -0.06742089 -0.4372497 -0.33089173
000190 69 71 09 bf 73 54 99 bd 08 93 03 be 4d 89 5d bd
       -0.53688675 -0.074868105 -0.12849057 -0.05408602
0001a0 08 d9 d1 bd c3 ae 95 bd 56 71 8f be cb 49 13 bf
       -0.102464736 -0.07308724 -0.28016156 -0.57534474
0001b0 f1 f9 73 bc 7a e7 0f bd 66 d3 86 bc 1b fe 40 be
       -0.014891134 -0.035132863 -0.016458225 -0.18846934
0001c0 4a df aa be 5e 5f d0 bd 4b d4 cb be 3d ab 1d 3e
       -0.3337348 -0.1017444 -0.39810404 0.15397353
0001d0 bb 7f 5f 3c 22 c5 59 ba c8 40 fc bc da 67 0f bf
       0.013641293 -0.0008307268 -0.030792609 -0.5601784
0001e0 9e c5 99 bd 34 7e c9 3a e6 58 e9 bd d3 69 6a bd
       -0.075083956 0.0015372694 -0.11393909 -0.057229828
0001f0 3c 55 f1 3c 9a 91 41 3e ae 25 17 3e 4f fc 11 be
       0.029459588 0.18903199 0.14760467 -0.14256404
000200 3c 58 cf be b8 65 f4 be 33 73 01 bf c6 25 da 3d
       -0.40497005 -0.47733855 -0.50566405 0.10651736
000210 34 c1 d7 3c ec 5c 44 bd c3 4d 1e bf f3 d8 57 be
       0.026337244 -0.04794018 -0.61837405 -0.21078853
000220 cd 1b ad be 90 e4 05 bc ca 07 83 bd 0d d7 24 3d
       -0.33810273 -0.008172169 -0.0639797 0.04024415
000230 7c 16 ca bd 2e 6b 43 bd 48 0a c9 be 2b 68 da be
       -0.0986757 -0.047709636 -0.39265656 -0.426576
000240 12 68 30 be 49 ae 56 3d b0 58 de 3d 0d e4 91 be
       -0.172272 0.052412305 0.108567595 -0.284943
000250 6d e5 92 be a9 c2 97 bd 46 82 aa be f8 88 83 3d
       -0.28690663 -0.07410175 -0.33302516 0.06422609
000260 d9 7a e1 3d ad 4f 05 3e 80 68 c0 bb 1d 24 c6 be
       0.110097595 0.13018675 -0.0058718324 -0.38699427
000270 0c b8 1b be 31 9c 28 be 69 20 83 be fc ec c6 3c
       -0.15206927 -0.16465832 -0.25610664 0.024282925
000280 43 8d e5 bd 44 5b 3f 3e 32 7c b7 bd 93 e6 33 be
       -0.11208584 0.18687159 -0.08959235 -0.17568426
000290 5e 2a 00 bf 3e 64 ec be 61 d8 90 be 06 85 c0 bc
       -0.5006465 -0.4617023 -0.28290084 -0.02350093
0002a0 ca e5 b6 bc d4 87 06 3c 01 75 0b bf 7a b7 04 bd
       -0.022326369 0.008211095 -0.5447541 -0.03240154
0002b0 76 a0 19 bf 48 c6 99 bc e8 90 b7 bd fb 0e 06 3d
       -0.6001047 -0.018771306 -0.089631855 0.03272913
0002c0 13 7c e3 bc 20 e0 92 be 5b 0b c2 be bc ae c4 be
       -0.027769124 -0.2868662 -0.3789929 -0.38414562
0002d0 6f d5 79 bd 18 be ed bd 7f cd 0e bd 41 4b 7c be
       -0.06099456 -0.11608523 -0.034863945 -0.24638082
0002e0 1b 42 8d be c8 a1 1e be 15 2a f7 be c6 61 c5 bd
       -0.27589497 -0.15491402 -0.48274294 -0.096377894
0002f0 bc b6 8d bd 7c 90 11 bc cf c2 26 3e 9c ec f9 be
       -0.069196194 -0.008884545 0.16285251 -0.4881333
000300 88 f4 bd bd 5d 76 cd bd 97 eb 9c bc 11 66 fe bd
       -0.09275156 -0.10032342 -0.019155307 -0.12421811
000310 b1 42 6d 3d d2 a0 4b 3c 30 7b 1b 3e 8e 36 0e bd
       0.05792493 0.012428479 0.15183711 -0.034719996
000320 64 0c af be 8a 2e 9e be a1 f2 a3 be ca 7b ea 3c
       -0.3418914 -0.3089488 -0.3202105 0.02862348
000330 c5 27 32 3d fa 43 cc 3d cb 66 c6 be 46 da a1 be
       0.04349496 0.09973903 -0.387503 -0.31611842
000340 de 75 ed be 7f 97 f7 bd d0 a8 0f bd 99 b9 aa 3b
       -0.46378988 -0.120894425 -0.0350731 0.0052101132
000350 53 13 3e bd 22 17 85 bc 8b 5c dc be 01 62 0c bf
       -0.046405148 -0.016246382 -0.43039355 -0.5483704
000360 f4 f0 4d 3d f6 01 02 3e a1 3a ad bc c0 cb b9 be
       0.05027862 0.1269606 -0.02114612 -0.3628826
000370 1e 31 dd be a9 5c 1a be bb 8e d2 be 3a df 26 be
       -0.43201536 -0.1507441 -0.4112452 -0.16296092
000380 ae 27 22 3d bd 95 ff bc 41 34 23 3e 80 d1 f1 be
       0.039588623 -0.03119933 0.15937902 -0.47230148
000390 26 43 52 bd dc 2d 95 bd 32 ba 86 be 26 ec d0 bd
       -0.05133357 -0.072841376 -0.2631393 -0.10201292
0003a0 32 37 02 3d 38 1a b6 bb a8 c2 3c 3e e3 d0 65 3d
       0.03179092 -0.0055573247 0.1843363 0.056107413
0003b0 04 82 8d be 57 c3 91 be 05 be f9 be 81 74 07 be
       -0.27638257 -0.28469345 -0.48777786 -0.13228036
0003c0 ab 84 24 3e 58 48 ba bd 81 38 10 bf 8b 3d b7 bd
       0.16066234 -0.0909583 -0.5633622 -0.08947285
0003d0 0f ad b6 be 00 eb 1f 3d a3 56 45 bd 00 f1 eb bd
       -0.35678908 0.039042473 -0.048178326 -0.115205765
0003e0 60 f1 28 be e7 96 00 be 99 82 8b be 9e 4b d9 be
       -0.16498327 -0.12557565 -0.27248076 -0.42440504
0003f0 b4 30 bb 3d 41 ab 26 3e 24 33 b3 bd 60 38 c3 be
       0.09140149 0.16276266 -0.08749989 -0.38128948

bias f4 [101]
000000 67 32 fa be f2 8c d0 be e0 5f 9f be 5a 87 c5 be
       -0.4886658 -0.40732533 -0.31127834 -0.38579828
000010 68 49 90 be 07 06 cc be ed d0 c8 be 2c f8 df be
       -0.28181005 -0.39848348 -0.39221898 -0.43744028
000020 4e 75 eb be 0e 13 b3 be 58 dd df be d2 9c 71 be
       -0.45987934 -0.34975475 -0.4372356 -0.23594978
000030 6d a3 ab be ba 64 5e be 3c a7 76 be 15 cb d4 be
       -0.3352312 -0.21718112 -0.24087232 -0.4156119
000040 54 3e 09 be 5b e9 b7 be 76 d2 e4 be 05 ff c7 be
       -0.13402683 -0.35920224 -0.4469182 -0.39061752
000050 68 79 ae be 2a de aa be 71 55 cc be 10 c7 85 be
       -0.34077 -0.33372623 -0.39908937 -0.26128435
000060 ef 53 85 be 0a 17 2c be 66 59 49 be 80 b1 b9 be
       -0.260406 -0.16805664 -0.19663009 -0.36268234
000070 c1 79 89 be 7a 70 28 be bd 4a f1 bd 7b 1d a8 be
       -0.26850703 -0.16449156 -0.11781833 -0.32834992
000080 fc 92 b1 be 50 34 79 be f7 b4 9f be 9b f4 b2 be
       -0.34682453 -0.24336362 -0.31192753 -0.34952244
000090 b1 7f cc be b7 31 db bd 80 af 85 be 49 fe 8a be
       -0.3994117 -0.10702842 -0.26110458 -0.2714713
0000a0 35 26 27 be bb a4 2e be 4b ae 27 be a6 96 9e bd
       -0.16323169 -0.17055027 -0.16375081 -0.07743578
0000b0 cc 4f 8b be a0 c3 da be f7 f8 40 be df 39 03 be
       -0.27209318 -0.42727375 -0.18844973 -0.12815045
0000c0 fa ab a8 be a7 21 8e bd 6d 77 5b be bf 4e a5 be
       -0.32943708 -0.069400124 -0.21432276 -0.3228664
0000d0 90 f5 e9 bd c2 2f 56 be 8e d3 97 be 68 03 d7 be
       -0.114237905 -0.20916656 -0.2965359 -0.41994786
0000e0 06 92 9c be 98 8c 8d be dc 40 41 be ad 42 88 be
       -0.30580157 -0.27646327 -0.18872398 -0.2661337
0000f0 c9 9f cc bd 9b 5b 96 bd 19 65 9d be 90 59 ec bd
       -0.09991414 -0.07341691 -0.30741194 -0.1154052
000100 d7 20 aa be b6 9c 53 be 4b a9 92 bd 69 cf 06 be
       -0.3322818 -0.20665249 -0.07161196 -0.13165058
000110 e1 be 6d be a7 22 de bd 0e aa dd be be c7 9c be
       -0.23217346 -0.10846453 -0.43293804 -0.3062114
000120 17 f3 c6 be f8 24 86 be b4 64 83 be c6 62 2c be
       -0.38857338 -0.2620008 -0.25662768 -0.16834554
000130 70 56 69 be e0 e7 df be e1 5d 97 be 67 f4 95 be
       -0.2278688 -0.43731594 -0.2956381 -0.29288027
000140 ac 29 a4 be 53 e7 b0 be b2 d7 d6 be db 8b bb be
       -0.32063043 -0.34551486 -0.41961437 -0.3663014
000150 1c 10 b6 be 47 cd a4 be f6 0b e6 be 26 38 4b be
       -0.35559165 -0.32187864 -0.44931 -0.19845638
000160 1a 45 6f be 2b ef cf be 46 84 ae be a7 cd 22 be
       -0.23366204 -0.40612158 -0.34085292 -0.15898763
000170 d7 2c 74 be ac 43 8d be 4b ea 9d be 09 b1 80 be
       -0.2384523 -0.27590692 -0.30842814 -0.25135067
000180 fe de c6 be 1f 3f ac be 75 33 5d be 40 80 c9 be
       -0.38842005 -0.33641908 -0.2160166 -0.3935566
000190 ef b4 90 be
       -0.2826304
