DQN_weights/qnt_0.pt (torch, 29631 bytes, 10 tensors)

weight f4 [16, 3]
00000000: 0a6c e6bd ebe2 dfbe b110 d93e 477b e4bc
00000010: a1a2 e23e c997 1ebe b64b c5bc 4c54 be3e
00000020: 8847 933e 6496 b3be 6dc6 2c3e 2715 b6be
00000030: a8eb 79be 0895 923e c60f 4a3e f69c 4ebe
00000040: c491 8ebb c759 b0be 3a99 053f 2131 2a3e
00000050: 6fbe f23b d4d1 063e d5d8 823e e7e5 80bd
00000060: 5702 cc3e 8804 ca3e a675 2abe 5877 dc3e
00000070: d8ae 2fbf aa9e 4bbe 00b2 83be 77ed 033f
00000080: 9bf0 2a3d 0eee 883e 80b5 ec3e 6946 f93e
00000090: 9d4b a23d 5ee3 e3be fd48 343e 2323 3f3e
000000a0: 0a9f 833e 5219 6dbe 9a59 0bbe e9e5 99be
000000b0: 907d b2be f8fa 60bd 2a66 f33e 6790 d0be
-0.112510756 -0.43727812 0.42395547 -0.027890814 0.442647 -0.15487589 -0.024083953 0.37173688
0.28765512 -0.35075676 0.16872568 -0.35563013 -0.24406302 0.28629327 0.1973258 -0.20177063
-0.0043508727 -0.34443495 0.5218693 0.16620304 0.0074079554 0.1316598 0.25556055 -0.062938504
0.39845535 0.39456582 -0.16646442 0.43059802 -0.68626165 -0.19884744 -0.2572174 0.5153422
0.041733366 0.2674412 0.46232224 0.4868653 0.07924578 -0.44509405 0.17605968 0.18665747
0.25707275 -0.2315419 -0.13608399 -0.3005822 -0.34861422 -0.054926842 0.47538882 -0.4073517

bias f4 [16]
00000000: b3b5 063e 6fc8 2a3c 513e f2be c2c8 8bbe
00000010: 4e7c cf3e d835 043e 4ac9 bebe 2113 133f
00000020: 996f 513e 9e9f b53e 4757 013f 5934 dbbe
00000030: b727 be3e b080 ebbe cf99 3c3e 3f19 b3be
0.1315525 0.010423764 -0.4731317 -0.27301604 0.40524524 0.12911165 -0.37262946 0.57451063
0.20452727 0.3547334 0.505238 -0.42813376 0.37139675 -0.45996618 0.18418048 -0.349802

weight f4 [32, 16]
00000000: 8b19 5b3e 0978 2ebe a20b 4bbd da69 813e
00000010: f2f2 9b3d 6415 813e 4ceb 683e 9b7d fe3c
00000020: 2e3f 69bd 8ef5 2a3e 0d41 ff3d 97fb 3abe
00000030: f9fb 26bb 4458 bfbd 0451 013c f7cf 00bd
00000040: a01b e9bd 5ada a7bd f8da 813d c889 4dbe
00000050: 2ae0 40be 2f8d 20be 89d5 abbd a68c da3d
00000060: 8325 be3b 38e2 01be 5960 b63d 7ba9 0fbd
00000070: 80a2 cd3d 244e 44bd 2068 06be 4fda 153d
00000080: 9853 31be f52f b03d cd78 dbbd c64a 933d
00000090: 5bb3 8ebc b6c3 353e 7d6b b73d 2b9c 55bc
000000a0: d2b5 5e3d 9ced c5bd dc43 663e 4bdc 293e
000000b0: ee39 3fbe 2d8a 4ebe 1888 5bbe 9dd3 5c3d
000000c0: 7d8e 6dbe c6ca bebd 4975 00bd a254 ed3c
000000d0: 10a5 003e 0f85 383e ebcf 1ebe 5f37 f2bb
000000e0: f7b8 9a3b ce1e 25be 260c 493e bfbf 0dbd
000000f0: e25e e63d 9253 e1bd 2274 603e fadd fe3d
00000100: 313d 983d 5145 bdbd d931 d5bd 0826 b6bd
00000110: c1cc 4e3e 89b1 c2bc 1c5c eebc a2c5 713e
00000120: 2c87 a33c c6c2 c8bd f3dc 15bd d11c 343e
00000130: 0d70 973d 40e3 c03c 36f0 d4bc 6b71 8c3d
00000140: 0a50 c43d d95f 453e 2713 bf3d 4103 d2bd
00000150: 5b13 92ba 156f 7f3e 8432 e8bc 0111 babd
00000160: 4993 3e3e 6935 5f3e cad7 d7bd 5cc7 b13d
00000170: 3bf5 613e 4b93 98bc 8ee9 83bb 3d9a 4a3d
00000180: 9362 20be ba6e 443d 673f 993d 8aba 82bd
00000190: bb15 65be 4749 053d 7f81 50bd 4ab9 8a3d
000001a0: 0e19 23be 97b8 d6bd 1c73 5e3d 53ac 253e
000001b0: 072a 39bd bcc6 a8be 89fc f9bd e0d2 9b3e
000001c0: 0c7a 04be c45f 7cbe d371 2e3e 1d7e 623d
000001d0: 5062 2ebc 8aea 13bd 3560 2c3d 7117 a7bb
000001e0: 1035 0ebe ffa9 4e3d 62d7 6bbe e613 b43c
000001f0: 17e8 8a3d 693a 0abd c82c 323e c6ec 8cbd
00000200: 7d25 6a3d 22d2 67bd 2441 883e 136b 2c3c
00000210: 2b6c 66be f226 27be 89d3 2d3e a3bd 2cbe
00000220: 2557 073e 523c b0bd 559d 8dbd f4d6 a9bd
00000230: 06ad 523d cc68 90be d87f ff3d d5a4 0ebe
00000240: 077d 18be d5a2 843e 407f 643c dc6b a53c
00000250: d786 ef3d 8d1c 073e f672 2f3e a68d e4bd
00000260: dc5b a5bc 973c e3bd c6e9 5b3e 8f75 4fbd
00000270: 7c13 ea3d 9874 fb3d 81a3 ee3d df76 15be
00000280: b8b7 1cbe a180 6b3e 78aa a13d 5aa7 78bd
00000290: b04a 5dbe d5ab 543e aff6 4d3d 0d5f 4c3e
000002a0: 4e95 37be 472f 313d 796b 623e cac4 eebd
000002b0: 3294 94bd bab9 bbbd 9bc3 c4bd 8ed8 7a3e
000002c0: c178 f9bd 998a 06be 29f6 343e a5b4 debd
000002d0: 0a01 d9bc 205f 5ebe b9a7 5abe 9afd 883e
000002e0: 796c 633e 275a 233e aa35 28be 0c0a d53d
000002f0: 9d82 2e3d c815 35be fa56 7abd 683e 953c
00000300: b8a0 0ebe 7b73 5c3e d4a0 353e c28d 7e3d
00000310: 7c09 6bbe 56a4 293d 3ed9 a73d ca04 9ebe
00000320: ef3f 933d 502e 2f3e 8260 9fba d635 683d
00000330: 6176 393d 1597 8ebe e113 313d 67ac a2bd
00000340: 5f6d 553e c8be 3dbb edd2 b5bd f0cd e7bd
00000350: 60a9 7c3e 623b 82bc 78f7 093b d606 4c3e
00000360: 8094 f23c 4b03 71bd 2014 d6bd f8d0 17be
00000370: a959 1cbd 43a5 a5bd f3fb 24be af0e 02bf
00000380: a48e 483d 738f dabc 553b 713d ab8e 1abe
00000390: 3e30 55bd 48e2 de3d 2a0a c9bd 12c7 9dbc
000003a0: 35d7 1c3e 5883 ee3c c77e 003a 048f 8a3c
000003b0: 1ae8 6abd 6143 bdbe 3970 f43d a968 293d
000003c0: 0be9 603e c9c8 cdbd b73e 82bd b929 72be
000003d0: eb8a 96bd 2208 05be 8a54 6abc ecc7 8b3e
000003e0: 1482 66bc 88cc 51be 03b2 23be 3082 2dbe
000003f0: c37a 873d e69c c1be c382 14be 3d38 41be
0.21396463 -0.17037977 -0.04957164 0.2527607 0.076146975 0.25211632 0.22746009 0.031065753
-0.05694502 0.16695234 0.12463579 -0.18260036 -0.0025479777 -0.09343007 0.007892851 -0.03144833
-0.11382222 -0.08195944 0.06340593 -0.2007209 -0.18835512 -0.15678857 -0.08390338 0.10671358
0.0058028116 -0.12683952 0.089050956 -0.03507374 0.1004076 -0.047926083 -0.13125658 0.03658515
-0.17317045 0.08602897 -0.107164 0.07191996 -0.017419508 0.17750439 0.08956049 -0.013037722
0.054372616 -0.09664461 0.22486824 0.16587941 -0.18674442 -0.20169897 -0.21438634 0.053912748
-0.23198886 -0.0931602 -0.03136185 0.02897102 0.12562966 0.18019508 -0.15509002 -0.0073918547
0.0047217566 -0.16125032 0.1963354 -0.03460669 0.11248566 -0.11002268 0.21919301 0.124446824
0.07433546 -0.09241737 -0.10409898 -0.08893973 0.20195295 -0.023766296 -0.029096656 0.23610547
0.019961916 -0.09802775 -0.036587667 0.17589118 0.07394419 0.023545861 -0.025993448 0.0685757
0.09585579 0.19274844 0.09329825 -0.10254527 -0.0011144684 0.24944718 -0.0283444 -0.090852745
0.18610872 0.21797718 -0.10539205 0.08680603 0.22066204 -0.018624922 -0.0040256446 0.0494635
-0.15662603 0.04795716 0.07482796 -0.06383236 -0.22371571 0.032540586 -0.050904747 0.06773622
-0.15927526 -0.104844265 0.054308996 0.16179018 -0.045206096 -0.32964122 -0.122063704 0.30434322
-0.12937182 -0.24645907 0.17035608 0.055296052 -0.010643557 -0.036112346 0.042083938 -0.00509923
-0.13887429 0.05045509 -0.23031381 0.021982145 0.06782549 -0.03374711 0.17399895 -0.068810984
0.057164658 -0.056596883 0.26612198 0.010523575 -0.225022 -0.1632345 0.16975226 -0.16869216
0.13216837 -0.08605255 -0.06914774 -0.08292952 0.05143454 -0.28204954 0.12475556 -0.13930066
-0.14891444 0.2590548 0.013946354 0.020193033 0.116956405 0.13194485 0.17133698 -0.1115983
-0.020185404 -0.11095541 0.21475896 -0.050649222 0.114294976 0.12278098 0.1165228 -0.14596127
-0.15304458 0.22998287 0.078938425 -0.060706474 -0.21610522 0.20768674 0.050284084 0.19958134
-0.17928049 0.043257978 0.2211131 -0.11658628 -0.072548285 -0.09166284 -0.09607621 0.24496672
-0.12181235 -0.13138808 0.17672028 -0.10874299 -0.026489753 -0.21715975 -0.21353044 0.26755983
0.22209348 0.15952359 -0.16426721 0.10402307 0.04260503 -0.1768409 -0.061118104 0.018218234
-0.13928497 0.21528427 0.17737132 0.06214691 -0.22952837 0.04141649 0.081957325 -0.3086303
0.07189929 0.1710751 -0.0012159499 0.056691967 0.04527891 -0.2784964 0.04323185 -0.079430394
0.20842503 -0.0028952826 -0.088781215 -0.11318576 0.24673986 -0.015897457 0.0021052044 0.19924483
0.029611826 -0.05884103 -0.10453057 -0.14825809 -0.038171444 -0.08088162 -0.16111736 -0.50803655
0.048964158 -0.02667973 0.058894474 -0.15093486 -0.05204796 0.108830035 -0.09816392 -0.019259963
0.1531647 0.029115364 0.0004901704 0.016913898 -0.057350256 -0.3696547 0.11935467 0.041359577
0.21963899 -0.10048062 -0.06359618 -0.23648728 -0.07350715 -0.12991384 -0.014302382 0.27300966
-0.014069099 -0.20488179 -0.15985875 -0.16944194 0.06615212 -0.37815017 -0.14503007 -0.1886911

bias f4 [32]
00000000: 6016 76be 6226 88be 90f5 9a3d df93 8d3d
00000010: d27c 55bd 5fe6 fbbd da89 f33d 2257 1f3e
00000020: fd07 a3bd 5712 af3d 1a09 2b3d a003 25be
00000030: b1df 18be 9665 d43d fd58 d33d 5bc0 0f3e
00000040: e5e9 e73b 4567 9e3d 4d81 1dbe 7543 47bd
00000050: 45de e73d d64d 133e 77fd 43be a952 03be
00000060: 9f33 073e 2222 a9bb 761d 303d 41ff 0fbe
00000070: a598 94bd 3bb1 333c 61a4 ccbd 9931 833e
-0.24031973 -0.26591784 0.075663686 0.0691297 -0.05212099 -0.12299799 0.118915275 0.15560582
-0.07960508 0.0854842 0.041756727 -0.16114664 -0.14929081 0.103709385 0.103197075 0.14038222
0.007077443 0.07734541 -0.15381356 -0.048648316 0.113216914 0.14385161 -0.19139658 -0.12824501
0.13203286 -0.0051615397 0.042996846 -0.14062215 -0.07255677 0.010967548 -0.0999229 0.25623778

weight f4 [32, 32]
00000000: 06b3 19be 682c cdbc c3ef 22bd d249 203d
00000010: c09b 21bd 5e07 913b 22bf 563e c9c8 8a3b
00000020: 534a 39bd c8a7 603c faaf 933d ba79 2dbe
00000030: f357 c5bd 40a2 24bd da5a 93bd 750b 3ebe
00000040: d7eb 9f3d d998 f03c 9c07 a53c 433d 0dbe
00000050: a1b0 eb3c 748b fdbd b63f ecbd 4532 c33c
00000060: 1f76 033d 979b 20be 48b8 ec3b 4cad 0abe
00000070: e697 6b3d 47da 01bd 33a1 a83e 85c7 46be
00000080: 2d22 af3d 7510 183e 0642 823d 8930 3abe
00000090: eab6 29be e381 84bd b81b 36bd 870b c6bd
000000a0: 31e5 e2bd c32b 68bd 1def 50bd b6a4 a53d
000000b0: 472b 873d 6d42 dd3d 7420 fe3c 630d 9ebd
000000c0: f5bb 99bd 0306 36ba ef17 cd3d 58ad 3a3e
000000d0: 3a1b 83bd 8797 d7bc f9af 9d3d 38ad 8ebd
000000e0: 7ca6 ecbc 8369 1b3e 8622 473e da4d 143e
000000f0: d4e5 1bbe 20f6 853d f3b1 163e c1eb 30be
00000100: dc39 fd3d 760f e73d 8964 11be 9639 b43c
00000110: f46c 07be 45c4 febd 06a6 08bd 9317 163e
00000120: 6502 6abe 7e76 06be 9df0 ea3d 72bd 7dbd
00000130: e363 dc3d c353 44bc 6c78 9c3d 6ba9 283e
00000140: 8b81 4bbd aacd bf3c 2ebc 2e3e 1ad0 09be
00000150: e41d 123d 70e0 26bd 8fe9 ebbc b5ec afbd
00000160: be4a 96bd dad0 493e 799f dd3b 1054 c53d
00000170: 7308 7a3d 086c f9bc c718 213c 9fda d03d
00000180: c93a e13d b251 b03d 2e08 6cbd 96aa 0dbd
00000190: b197 9c3c 1f9e 023e 8aed f33d 49de 05bd
000001a0: f546 6c3e f734 993d 0a05 e13d f13f 283e
000001b0: afbd ab3d 6cc1 40be 6d1f 0fbe bee6 58bd
000001c0: b70f a7bd c91a 5e3c 68a9 d43c b1b1 7b3e
000001d0: 8e31 a8bc 0dbc 113c 1de1 89be 3593 0ebe
000001e0: 41fb 10be 729b bebc 08dd 173e 67f4 193e
000001f0: a53f a43d 217f 9e3d 3944 2dbd 15bb 1a3d
00000200: 30ba 253e 1028 fb3c ae49 0bbd 47a3 043e
00000210: f477 39be 31af c03d 1e89 13bd 9b02 a4bd
00000220: a3f9 0dbd 3e69 33be e856 f0bd dea0 333d
00000230: 7d9f 193e d1c7 cebd 8e1b c33d 37c5 0cbe
00000240: f214 b0bd adc4 a43d 116b 09be c57a 273d
00000250: bf52 a4bd 4f10 7f3d abac 043e deaf be3d
00000260: ddd0 8dbe 457b d03d 1ba4 2e3e f124 033d
00000270: c03c 3a3d d824 42bc 2581 a63e e1fd 7cbe
00000280: 1658 e13d 4fee 33be 64cb 61bd 26e1 cbbc
00000290: 2f05 45bd bf64 26be 0772 1e3e 6ae0 dc3d
000002a0: cc05 eebd a5d7 abbd 964c eebd a542 b3bd
000002b0: 4434 3dbd 12bf 5a3e 9f51 36bd 4a1e b6bd
000002c0: b124 643c 8edd 27bd adf3 3ebd a951 4cbd
000002d0: ccb0 353d a7cb 983d bc57 b4bd 4525 bd3d
000002e0: 5550 103e 0c08 cebd c455 1dbd f563 17bd
000002f0: e02f 11bd cb48 db3d a641 5c3d 042f d4bd
00000300: 18fe f9bd 321d a3bd e68f f2bd 416f 11bd
00000310: 5cb6 31be a930 0abe 2b13 183e efad b53d
00000320: 7f1a 0a3e 0a83 ad3d 9215 2dbe b766 9fbb
00000330: 5ea6 05be d889 93bd 28ab 533d eb4b ad3d
00000340: 6be1 863b c70d 94bd 7136 33bd 42a9 293e
00000350: b86f 40bd f0c8 c5bb 4960 e2bd ad00 f13d
00000360: e536 25be d144 543d 6768 ed3d e713 fd3d
00000370: ccd6 eebd d5f9 09bc a893 b83e 8180 2b3b
00000380: bd91 07be f28e 68bd 3a29 a73b 9765 073e
00000390: b4f4 133e a7c6 d4bd aca5 1dbe 7ab0 17be
000003a0: ec3f 01bc 4fdb b4bd e230 3ebd 384b 05be
000003b0: e48a 23be c6ec 5c3e ddca ad3c ef95 56bd
000003c0: 1964 143e 39f1 43bd d694 af3d 7fb4 5a3d
000003d0: e330 2dbd 55bc 2ebe 19c3 babc f739 0ebe
000003e0: 402e 2a3e 0d35 4f3d 60d0 88bd 92ca 33bd
000003f0: 54ef d63d 292c c1bd 9a42 9e3e 852f 373d
-0.15009698 -0.025045589 -0.039779436 0.0391329 -0.039455175 0.004425927 0.20971349 0.0042353612
-0.045236897 0.013711877 0.07211299 -0.16940966 -0.096359156 -0.040193796 -0.07195063 -0.18559058
0.07808655 0.029369758 0.02014523 -0.137929 0.028770747 -0.12380114 -0.115355894 0.023827681
0.03209507 -0.15684353 0.0072241165 -0.1354267 0.05751791 -0.031702306 0.32935485 -0.19412048
0.085514404 0.14850028 0.06360249 -0.18182577 -0.16573682 -0.064700864 -0.04446003 -0.096701674
-0.11078871 -0.05668236 -0.051009286 0.08088057 0.066000514 0.10803685 0.031021334 -0.07717397
-0.07506553 -0.0006943645 0.100143306 0.18230188 -0.064016774 -0.026317371 0.0769958 -0.069666326
-0.02888798 0.15176968 0.19446763 0.14482823 -0.15224391 0.06541085 0.1471632 -0.17277433
0.123645514 0.11282246 -0.14198507 0.022000115 -0.13225156 -0.12439779 -0.033361457 0.1465743
-0.22852476 -0.13131139 0.114716746 -0.061948247 0.107612394 -0.011982861 0.07640156 0.16470878
-0.04968409 0.023413498 0.17063972 -0.1345829 0.035673037 -0.040741384 -0.028797893 -0.0859007
-0.07338475 0.19708577 0.0067633954 0.09635174 0.061043214 -0.030447021 0.009832568 0.10197949
0.109975405 0.08609332 -0.05762499 -0.03458651 0.0191153 0.12755631 0.11910541 -0.03268269
0.23073943 0.07480805 0.10987289 0.16430642 0.08385789 -0.18823785 -0.13976832 -0.052954428
-0.08157294 0.013556191 0.025959685 0.24579503 -0.020531442 0.008894932 -0.2692956 -0.13923343
-0.14158346 -0.023267481 0.1483041 0.15034638 0.08019952 0.07739092 -0.04230139 0.03777607
0.16184306 0.030658752 -0.034005813 0.1295291 -0.18112165 0.09408415 -0.036019437 -0.080083095
-0.0346619 -0.17520615 -0.11735326 0.043854587 0.15002246 -0.10096706 0.0952674 -0.13747106
-0.08597745 0.080453254 -0.13419749 0.040888567 -0.08023595 0.062271412 0.12956493 0.09310888
-0.27698413 0.10179762 0.17054789 0.032017652 0.045468092 -0.011849605 0.32520404 -0.24706222
0.11003129 -0.17571376 -0.05512561 -0.024887633 -0.048100647 -0.16249369 0.15473185 0.10784991
-0.116221994 -0.0839074 -0.11635701 -0.08752946 -0.046192423 0.2136195 -0.044511434 -0.08892496
0.013924764 -0.040982775 -0.046619106 -0.049882565 0.04435806 0.074607186 -0.088057965 0.09235624
0.14093144 -0.100601286 -0.03841187 -0.03696056 -0.035446048 0.107072435 0.053773545 -0.1036053
-0.12206668 -0.07964553 -0.11843853 -0.03550649 -0.17354721 -0.13495125 0.14851062 0.08871066
0.1348667 0.08472259 -0.1690276 -0.0048645395 -0.13051745 -0.07204026 0.0516769 0.08461746
0.0041162274 -0.0722919 -0.04375309 0.16568473 -0.046981543 -0.0060359165 -0.11053521 0.11767707
-0.16134222 0.05182344 0.11592179 0.12357312 -0.11662063 -0.008421381 0.36050153 0.0026169124
-0.13239188 -0.05677695 0.00510135 0.13222347 0.14448816 -0.103894524 -0.1539523 -0.14813414
-0.007888775 -0.08830892 -0.046433337 -0.13016975 -0.15970951 0.21574697 0.021214897 -0.05238908
0.14491309 -0.04783747 0.0857331 0.05339479 -0.04228295 -0.1706403 -0.022798108 -0.138893
0.16619205 0.050587703 -0.066803694 -0.043894358 0.10494867 -0.09432251 0.30910188 0.044723053

bias f4 [32]
00000000: 6ef4 17be 78ff f43b 4510 923d 553f 0c3e
00000010: 6ab6 b13b 8eac 923d c4f7 fbbb ad68 c3bd
00000020: 67b3 bd3b 6345 273e 25ba 1dbe d3f2 0a3d
00000030: eb25 813b b177 5bbb aac2 133d 8d32 bfbc
00000040: 3edd 5c3d fb44 f23d 12ae 4cbb abb5 583d
00000050: 3867 163d 5980 0e3e 94f0 b6bc 993e 053e
00000060: ea7f a33d 7a50 bb3d 8ed2 35be 8720 adbd
00000070: 422d 61bd b24d debd 1c05 8cbd 0f8a 64bd
-0.14839336 0.0074767433 0.071320094 0.13696034 0.005423357 0.071618184 -0.007689448 -0.0954145
0.0057892087 0.16335063 -0.1540304 0.03392298 0.0039412878 -0.003348809 0.036074318 -0.023339534
0.05392193 0.11829563 -0.0031231684 0.052907627 0.03671953 0.13916148 -0.022331513 0.1301216
0.07983382 0.09146209 -0.17756101 -0.0845347 -0.0549748 -0.10854663 -0.06836912 -0.055795725

weight f4 [32, 32]
00000000: 1475 2abe 995b dfbd 2d0f 74bd e8eb 19bd
00000010: 3bc1 c1bd 97f1 7bbd af7f c13d 4168 01bd
00000020: 3c5a 073d 702c 453c 6dbe ff3d f54c a4bd
00000030: 1433 d439 47ed 053e 72c8 cabd 1530 4f3d
00000040: 07b7 903d 0bc2 933b 8f27 fe3d 776b dd3d
00000050: 9db3 d73c 686e 203d 9c40 b9ba f628 9e35
00000060: 9825 b2bd e2f9 6cbb e126 093e f2d2 2ebd
00000070: a6e5 1d3e 16bb a73d 9015 94bd 052b 533e
00000080: e0d1 aa3c add6 31be 042e 8fbd 3cf1 38bc
00000090: ae14 acbd e6b5 3b3b 15e9 2fbc 0228 643d
000000a0: 5153 853c 9733 e53d f5e4 f3bd 4ee8 a23d
000000b0: f43c 96bd 6276 d9bc 31ee 87bd e398 6cbc
000000c0: ec1e b33d fe3f 223e 388c 2b3e 8f90 bb3d
000000d0: 8069 16be 6921 0a3e 3115 36bd d890 06bc
000000e0: d31f 003d 7a19 4abc df12 0abc c8af 5f3d
000000f0: 30de b1bd 5de8 3ebe 27ce 72bd 21b7 37bc
00000100: 10dd cd3c f252 3f3e f91d f83d 996b 863d
00000110: 070f c93d fc3f 99bd f8ed 8dbd cd88 813e
00000120: 182c 2cbd c986 c8bd 4850 1b3e aafe c53d
00000130: 269a 373e 2d02 6f3d 1dc6 d13d a469 c6bd
00000140: d664 81bd dc8c 073e 378a 883c 28a7 553d
00000150: 30f1 743d 6d94 923d ac6f aa3e a272 3cbd
00000160: d622 123e 42d4 e83d f814 aabd 03f2 2dbe
00000170: 87b9 05be d683 3cbd 3c4a 223e 289f 6c3c
00000180: ef98 2d3e acaf 0b3d 5657 20bd 8ffe 89bc
00000190: d978 9cbd 5eaa 2fbd c00a 40bd 5684 fbbd
000001a0: 1480 0e3d ee37 dd3b 3195 87bd 022c 74bd
000001b0: 5fb6 0c3c c4fc 4e3c 85fc bbbd b138 61bd
000001c0: 2d81 243e a278 79bd 0c3f 5bbd 50ce 323c
000001d0: 79f2 8e3d 374f 043e c972 633e afaa 50bc
000001e0: ed80 aabb e5fc 2b3d dcde 09bd 322b ddbd
000001f0: c1af da3d 3490 2dbd def2 a6bc 557a 67bd
00000200: f458 53bd c3ee bdbb 8a4c 4ebd c7f6 8a3d
00000210: 7146 2cbe d66c ad3c 6e1b f2bc 5e08 97bd
00000220: 133f f4bb cd0f 48bc 9465 8ebd 94a4 0dbe
00000230: ac3d ee3d d00a 20bc d767 f8bd 6a70 0abd
00000240: 1619 1f3d 73db bebd 15b3 29bd 645a b73d
00000250: 0bdc 033d 9b90 a23d 87ec 9dbd 3657 db3c
00000260: 4837 64bc d09a be3c 35aa 03bd ae5e 94bd
00000270: 1d90 cf3d 25fa 22be 9f04 b83c 4597 1ebe
00000280: 2861 96bd 82ee 0a3e 6177 bdbc eb33 3a3d
00000290: 2090 d3bd 91d7 15bd 9326 06bd 5015 acbd
000002a0: ec1e 2d3c 1742 13bd 988c afbc a00c 94bd
000002b0: fd75 b6bd 5c11 523d 40d2 0dbd 37b9 73bd
000002c0: 4eeb 313d 98d6 a1bd 5a3d 01bd dd96 693c
000002d0: 83a5 a73d 13b8 113e 4739 623c 782a a83c
000002e0: a358 283d 937a 6d3d 34a5 04bd bead 8abd
000002f0: ac9b d03d 1675 0fbd a6ea 87bc 3e65 9ebd
00000300: 2024 fdbd fb05 f9bd 4b95 cabc 9b6b df3c
00000310: 3efe 39be 8ad9 5f3d 841c 103e e182 c0bd
00000320: 407f 6ebc 8c9a 63bd 741b 0b3e 6a5d 893d
00000330: 1e37 0ebe e081 cabd b1f9 57bc 88df bebd
00000340: d0af dcbc 739b 71bd 3cd3 243e d6e2 903d
00000350: d5cd 0e3d 05b2 5fbd a5e7 7b3e 4a94 4a3d
00000360: 44e0 183e 26d8 43bd 960f 033e 5c4c a13c
00000370: b1ee 493e 7f84 dbbd 7329 f5bd 5c3f e23d
00000380: 9baa 043e a46f d83d 69b3 373e 7ea4 20be
00000390: 4a20 8dbd eee5 c03c b91d 16be db55 153e
000003a0: aa46 aa3d e15a f33c d6e1 d63d 0303 bb3e
000003b0: 8668 9f3c abd0 82bd 3888 f8bc fa02 89bd
000003c0: 3254 cb3d 1a7a bf3d 8196 313e 18a5 923d
000003d0: adf6 bf3c b5b7 8f3d ff10 f93c d249 e03d
000003e0: d357 c2bd f5b2 1c3e aaee 113d cc5e f6bd
000003f0: 5dc7 113c e5e7 27bd e99e 7bbd bc05 79be
-0.16646224 -0.10906143 -0.059584785 -0.037578493 -0.09460684 -0.061509695 0.09448182 -0.031593565
0.03304504 0.0120345205 0.12487493 -0.08022491 0.00040473847 0.13078795 -0.09901513 0.050582964
0.0706616 0.0045092157 0.12409889 0.10811513 0.026330763 0.03916779 -0.0014133635 1.1783839e-06
-0.08698577 -0.0036159684 0.13393737 -0.042681642 0.15419635 0.08189981 -0.07230675 0.2062188
0.02085203 -0.17367049 -0.06991199 -0.0112879835 -0.08402382 0.0028642355 -0.010736723 0.055702217
0.01627508 0.111914806 -0.119089045 0.07954465 -0.07335845 -0.026545707 -0.06637228 -0.014440748
0.08746132 0.15844724 0.16752708 0.09158432 -0.14688683 0.13489307 -0.044453803 -0.008213244
0.03128035 -0.012335176 -0.008427351 0.054610997 -0.08684957 -0.18643327 -0.059278633 -0.011213095
0.025129825 0.18683985 0.12115092 0.065634914 0.09817319 -0.07482907 -0.069301546 0.25299683
-0.04203424 -0.09791333 0.15167344 0.09667714 0.17929897 0.058351684 0.10242865 -0.09688118
-0.06318061 0.13237327 0.016667468 0.052161366 0.059800327 0.07157216 0.33288324 -0.04600776
0.14271101 0.1136861 -0.08304781 -0.16986851 -0.13059054 -0.046024166 0.1584863 0.014442243
0.16952871 0.03410308 -0.03914579 -0.016845016 -0.07640237 -0.042887084 -0.046885252 -0.122811005
0.034790114 0.006751052 -0.06620253 -0.05961228 0.0085884025 0.012633506 -0.09179024 -0.054985706
0.16064902 -0.06090606 -0.053526923 0.010913447 0.06979842 0.12920843 0.22211756 -0.012736007
-0.0052033574 0.041989226 -0.0336598 -0.107992545 0.10678054 -0.04237385 -0.02037948 -0.05651315
-0.051598504 -0.005796285 -0.050365962 0.0678535 -0.16823746 0.021170061 -0.029554095 -0.07374643
-0.007453808 -0.012210798 -0.06952968 -0.13832313 0.11632857 -0.009768203 -0.12129181 -0.033798613
0.038842283 -0.093192 -0.04143055 0.089527875 0.03219227 0.079377376 -0.0771113 0.026774984
-0.013929196 0.02326718 -0.032144744 -0.07244621 0.10134909 -0.15915735 0.022463141 -0.15487392
-0.0734275 0.13567546 -0.023128213 0.04545967 -0.10330224 -0.036582533 -0.03275163 -0.084025025
0.010566454 -0.0359517 -0.021429345 -0.072289705 -0.08909223 0.051286086 -0.03462434 -0.059502807
0.043437295 -0.07902259 -0.03155265 0.01425716 0.08185866 0.14230375 0.013807601 0.020528063
0.041100156 0.057978224 -0.032384112 -0.0677142 0.10185942 -0.03502377 -0.016591381 -0.07734154
-0.12360406 -0.12159344 -0.024729392 0.02727299 -0.18163392 0.05465082 0.14073378 -0.09399963
-0.014556706 -0.05556731 0.13584691 0.067072704 -0.13888213 -0.09888053 -0.01318209 -0.09319979
-0.026939303 -0.05898614 0.16096205 0.070745155 0.034864265 -0.054613132 0.24600084 0.049457826
0.149293 -0.047813557 0.12798914 0.019689731 0.1971996 -0.10718631 -0.119707964 0.11047241
0.12955706 0.10568169 0.17939533 -0.15687749 -0.06890924 0.023547139 -0.14659776 0.14583533
0.08314259 0.02970642 0.104922935 0.36525735 0.01945902 -0.063874565 -0.030338392 -0.06690021
0.09928168 0.09349461 0.17342569 0.071603954 0.023433054 0.07017461 0.030403612 0.1095158
-0.094894074 0.15302642 0.035628 -0.120298 0.00889763 -0.040992636 -0.061430845 -0.24318594

bias f4 [32]
00000000: a36d 74bc 1eaa 503d aefd b3bd 0e09 de3d
00000010: 2bf3 eb3d 1aa7 edbb 72d5 b3bb 3c19 e4bd
00000020: 0f30 2f3d 8ddb 4fbd cee3 033a fda7 ccbd
00000030: c645 b8bd 37fd ee3d 2f21 fd3d cdd5 e63b
00000040: ba21 a03d 3536 80bd 888c 83bd b772 1d3e
00000050: aac8 b7bd 1ffe 80bc 2994 ae3d be3b 15be
00000060: 72e2 143e e3ae 263d 11a8 26be 2633 bebd
00000070: 92b0 d43d 13a5 5a3c bf1e 7f3d 34fb 1c3e
-0.014918718 0.050943486 -0.0878862 0.10841571 0.1152099 -0.007252586 -0.005488091 -0.111376256
0.04277044 -0.05074649 0.0005031199 -0.09992979 -0.08997683 0.11669391 0.12359845 0.00704453
0.07818933 -0.06260339 -0.064232886 0.15375791 -0.089738205 -0.015746174 0.08524353 -0.14573571
0.14539507 0.04069413 -0.1627505 -0.092870995 0.103852406 0.013345021 0.06228518 0.15330201

weight f4 [101, 32]
00000000: eb37 d4bf 45e3 bfbf 6bb4 9abf 00dd 4fbc
00000010: 2a2d 2d3e 3164 9bbd 389b c8bf d424 e4be
00000020: 6fa9 41bc 9a22 10bd a33a babf 86b9 c8bf
00000030: 6a49 d5bf a094 30bc ae4b f7bd 962f 933d
00000040: 2471 023d 322b d0bf 8def 023d 368d 093e
00000050: 2035 a5bf 0142 693d 8415 93bf 0b76 bbbf
00000060: ad35 003e afd8 0f3e 70c1 27be 9366 d13d
00000070: 2264 e4bd 0792 0f3e 9d63 b2bf 0ddc abbf
00000080: 2505 c7bf 5c27 c5bf 3381 95bf 67dd d93d
00000090: 55b3 163e 10ac 04be 34b2 c3bf b421 d0be
000000a0: 9a2e 06be a7d7 32bd 8b40 d6bf c2d1 b5bf
000000b0: ac8a c0bf 7998 883c 269d 953c 0ab8 1d3e
000000c0: 8daf 913d 93b0 c8bf 6138 ae3c dacd 813d
000000d0: 13e2 adbf 91a8 88bd 5bb6 a7bf 4c7d b9bf
000000e0: 601a 5cbd c6c2 98bd 847e 8b3c 8f19 c43a
000000f0: bb24 303e ec24 8b3d 4649 c8bf 0ca2 bbbf
00000100: 1a6f d8bf 9663 babf e081 b5bf 2772 0bbe
00000110: 4545 d53d a041 ddbc 5259 dcbf f7d1 d7be
00000120: 8620 dabd a04f 8f3d d976 cabf 07f4 a7bf
00000130: fc2c c3bf 990e cd3d 06a6 193d f11b 82ba
00000140: 2022 043d b214 bbbf 8fdc 81bd 0e86 1cbe
00000150: 985d b5bf b4e4 6fbc efc5 98bf 723b ccbf
00000160: 35f7 2b3e 0bdc 28be 51ae 8fbd fe89 33be
00000170: 084d 743d c2b9 043e b92c c4bf 090b afbf
00000180: 9584 d2bf 73dd bdbf d3f3 94bf 7ab2 02be
00000190: 391a d43c 4a3e 2dbe dde1 cfbf 95a0 c7be
000001a0: bcff f9bc 5414 56bc f8a2 cdbf edfe babf
000001b0: 6e75 cdbf 9190 233e 56b8 21be 074f 9a3c
000001c0: 689c 4b3d 8311 c1bf 50d4 acbd 22a7 d73d
000001d0: 4b2c c9bf f6f0 403d c3c5 a7bf 939e c8bf
000001e0: b47c 66bd 658a 753d 82cf c7bd 6522 af3d
000001f0: f917 943c a086 1a3c fc8f a3bf 345a 9abf
00000200: abb0 dcbf 8081 bbbf 6acb 8fbf 4dcb cdbd
00000210: 8df6 5c3d 1085 713c db86 d8bf 09fc c4be
00000220: 5b38 0ebe a95b 6d3c 29dc d6bf b462 a2bf
00000230: 78c1 adbf 8488 3a3d 250b a4bd 3009 2dbe
00000240: d2f3 c0bc 6fad babf b151 383d 8159 043e
00000250: b26c aabf c01b 36be cdd9 a2bf 185a cabf
00000260: 6c5c 1ebe a80e e2bc d2a0 26be 21c9 0c3e
00000270: c8e1 05be 89e7 18bd 9c2c b1bf eb33 c7bf
00000280: e9b9 e4bf bdf6 b9bf 8808 afbf 2084 86bd
00000290: a0d1 dc3d 206c 2dbc d678 cbbf a4fb 98bd
000002a0: 16c3 69bb 1a6c d43d 6758 cbbf 9344 c2bf
000002b0: ecff c0bf 02d2 b53d 6637 9cbd 2b48 c93c
000002c0: 5981 4fbd dd21 dbbf c905 3fbd 7ab1 0d3e
000002d0: 81b1 dbbf d127 293e fa43 b5bf 4343 c3bf
000002e0: a87b 933d dca4 1c3e acb3 d3bc e63b b3bd
000002f0: c27a 4cbd 1c63 eb3d 827b c7bf 3707 bebf
00000300: b9ee d5bf fa95 bcbf fa59 a9bf 8b26 21be
00000310: 44ad 25be ac00 21bd c303 d8bf 92d5 10bf
00000320: fdfa a5bd 930d 90bd 07ab c7bf e313 b3bf
00000330: 903b c1bf 1516 243e 8212 243e 82d0 0bbb
00000340: 64b3 06be 295a a9bf 7a05 acbc 61b1 d0bd
00000350: 69de c2bf 9dbc 2b3e 44c6 96bf 3823 aebf
00000360: a0d7 c5bc f909 103e 1988 713d 6964 103e
00000370: 4d68 01be c371 1a3e 845a bdbf e06c c6bf
00000380: b56b c1bf 47f3 cebf b6c8 9dbf 19b2 cc3d
00000390: 1c8a 213d 6cd0 1abd 782f d2bf 97af e1be
000003a0: 06f2 103e d295 7ebc d68a dfbf 8d69 a9bf
000003b0: fd3d bbbf 6759 343e 95e1 a83d 7685 ef3d
000003c0: cbb1 b83d d093 c8bf d1ad 283d 9437 083e
000003d0: bf90 aebf 9c6d 1bbe 5cd2 9ebf 9674 d6bf
000003e0: 90da 6c3c 5513 a13d b0c6 c1bd 7ecb 083e
000003f0: 0f5b 15bc 077f 323e 4daf b8bf 54b1 a7bf
-1.6579565 -1.4991232 -1.2086309 -0.012686968 0.1691176 -0.07587469 -1.5672369 -0.44559348
-0.011820181 -0.03518925 -1.4549145 -1.5681617 -1.6663029 -0.010777622 -0.12074982 0.07186811
0.03184618 -1.6263182 0.031966735 0.13432774 -1.2906837 0.05694771 -1.1490941 -1.4645399
0.12520476 0.14047502 -0.16382384 0.102246426 -0.11151911 0.14020549 -1.393665 -1.3426529
-1.5548445 -1.5402637 -1.1680053 0.10637932 0.14716847 -0.12956262 -1.5288758 -0.40650713
-0.13103715 -0.043662693 -1.6738447 -1.4204638 -1.5042319 0.016674267 0.01826341 0.15402237
0.07113562 -1.5678886 0.021267118 0.06338091 -1.3584617 -0.066727765 -1.3102525 -1.4491363
-0.05373609 -0.07459025 0.0170281 0.001496123 0.17201512 0.06794152 -1.5647361 -1.4658828
-1.6908906 -1.4561641 -1.418026 -0.13617764 0.10413603 -0.027008832 -1.7214758 -0.42152378
-0.106507346 0.06997609 -1.581752 -1.3121346 -1.5248103 0.1001255 0.037511848 -0.000992654
0.032259107 -1.4615691 -0.06340896 -0.15285513 -1.4169188 -0.014641929 -1.1935405 -1.5955641
0.16793521 -0.1649019 -0.0701567 -0.17533109 0.059643775 0.12961486 -1.5326148 -1.3675243
-1.6446711 -1.4833206 -1.1636909 -0.12763396 0.02589141 -0.16918293 -1.6240803 -0.38989702
-0.030517451 -0.01306637 -1.6065359 -1.4609047 -1.6051462 0.15973116 -0.15792975 0.018836511
0.049709707 -1.5083469 -0.08438933 0.10529925 -1.5716642 0.0471048 -1.3107227 -1.5673393
-0.05627127 0.059946436 -0.09756376 0.08551482 0.018077837 0.009431511 -1.2778316 -1.2058778
-1.7241415 -1.4648895 -1.1233952 -0.10048542 0.053946067 0.014741197 -1.6916155 -0.38473538
-0.13888685 0.0144871855 -1.6785938 -1.2686372 -1.3574667 0.045540348 -0.08009938 -0.16898036
-0.023553763 -1.4584178 0.044999782 0.12924768 -1.3314421 -0.17784023 -1.2722718 -1.5808744
-0.15464944 -0.02759488 -0.16272286 0.137486 -0.1307441 -0.037330184 -1.3841739 -1.5562719
-1.7869235 -1.4528424 -1.3674479 -0.065681696 0.1078217 -0.010584861 -1.5896251 -0.07469872
-0.0035669259 0.10372181 -1.5886353 -1.5177177 -1.5078101 0.088779464 -0.07627754 0.024570545
-0.050660465 -1.7119709 -0.046636377 0.13837233 -1.7163545 0.16519095 -1.416137 -1.5254902
0.0720132 0.15297264 -0.02584251 -0.08751659 -0.04992176 0.11493513 -1.5584567 -1.4845952
-1.6713477 -1.4733269 -1.3230584 -0.15737359 -0.16179377 -0.03930728 -1.6876148 -0.5657588
-0.08104513 -0.07033839 -1.5599068 -1.3990444 -1.5096302 0.16024049 0.16022685 -0.0021333997
-0.1315437 -1.323064 -0.020998705 -0.10190082 -1.5224124 0.16771169 -1.1779256 -1.3604498
-0.02415067 0.14066304 0.058967683 0.14100803 -0.12637444 0.15082459 -1.4793248 -1.5501976
-1.5110995 -1.6167992 -1.2326877 0.09994907 0.039438352 -0.037796423 -1.6420736 -0.44079277
0.14154825 -0.01553865 -1.7464244 -1.3235337 -1.4628292 0.1761223 0.08246151 0.116953775
0.09018286 -1.5670109 0.04118139 0.13302451 -1.3637923 -0.15178531 -1.2407947 -1.6754329
0.014456406 0.078650154 -0.09461725 0.13358876 -0.009115948 0.1743127 -1.4428498 -1.3100991

bias f4 [101]
00000000: 1f86 c1bf cbd9 b8bf 5a7b bdbf f1c3 c2bf
00000010: 4aee b0bf 1b16 e2bf b5ce abbf 4beb b3bf
00000020: f5f8 d3bf 07cd d2bf 183e d3bf e0d5 d0bf
00000030: e698 bfbf ee01 c3bf 99d7 c2bf 9732 c3bf
00000040: 4ba0 b1bf 1a7c b7bf 312f d2bf b158 d3bf
00000050: 2583 afbf 732d bfbf dfc9 b5bf e3d4 abbf
00000060: a57b c0bf 270c ccbf 62ab bcbf 0c0c bcbf
00000070: 59b6 c8bf 02c9 b5bf bfd2 cbbf 652d a9bf
00000080: b048 cdbf 6a9d b1bf 1185 b9bf 2985 babf
00000090: 7aaa ddbf c79b babf 2550 b4bf ee56 acbf
000000a0: 87f4 a5bf 9d46 b2bf f6df cbbf f219 cbbf
000000b0: c5b7 bfbf dae6 d3bf 94cd a6bf a1e1 b5bf
000000c0: da26 a3bf e6ee b5bf b2ee b5bf 067a afbf
000000d0: 8de0 a6bf d940 c2bf 0128 a9bf 9928 afbf
000000e0: 0204 c5bf 8769 c5bf f372 dbbf 3e15 b7bf
000000f0: 29a5 b2bf 7d65 bbbf e615 b2bf bddd d0bf
00000100: 872a a2bf 9487 c1bf 7288 afbf fbc5 bfbf
00000110: 7df7 c9bf 3082 c9bf efa4 b5bf 35cb cfbf
00000120: e59d bbbf 5f0a cfbf 0380 cebf bfe9 cbbf
00000130: 754c a9bf 1b3d cabf 4166 bcbf ec4a b9bf
00000140: 739d afbf 0c12 b9bf f6ea d0bf 87f4 b8bf
00000150: 830b b0bf ca0a babf c6a0 bebf 1606 bebf
00000160: fa07 b5bf 915a d7bf 6ed1 b0bf 272a d0bf
00000170: f628 dcbf 4e6f d0bf df4f c0bf 5d4d c3bf
00000180: ad79 b5bf 919e d2bf 48b9 b7bf 5e4e c6bf
00000190: e273 c5bf
-1.5119056 -1.4441465 -1.4803269 -1.5216047 -1.382272 -1.7662996 -1.3422457 -1.4056181
-1.6560351 -1.6468819 -1.6503325 -1.631527 -1.4968536 -1.5234964 -1.5222045 -1.5249814
-1.3877043 -1.4334748 -1.6420652 -1.6511441 -1.3711897 -1.4935745 -1.4202231 -1.3424343
-1.5037733 -1.5941209 -1.4739802 -1.4691176 -1.5680648 -1.4201968 -1.592369 -1.3216978
-1.6037807 -1.3876164 -1.4493734 -1.4571887 -1.731765 -1.457879 -1.4086958 -1.3464029
-1.2965249 -1.39278 -1.5927722 -1.5867293 -1.4977957 -1.6554825 -1.3031487 -1.4209481
-1.2746232 -1.4213531 -1.4213469 -1.3709114 -1.3037277 -1.517604 -1.3215333 -1.3684264
-1.5391848 -1.5422829 -1.7144455 -1.4303358 -1.3956653 -1.4640347 -1.3912933 -1.6317669
-1.2669228 -1.51195 -1.3713515 -1.4982294 -1.5778652 -1.5742855 -1.4190959 -1.6233889
-1.465756 -1.617504 -1.6132816 -1.5930709 -1.3226458 -1.5799898 -1.4718705 -1.4475989
-1.3719925 -1.4458632 -1.6321704 -1.4449624 -1.3753513 -1.4534543 -1.4892814 -1.4845607
-1.4143059 -1.6824514 -1.3813913 -1.6262864 -1.72 -1.6283967 -1.5024375 -1.5257984
-1.4177758 -1.6454641 -1.4353418 -1.5492666 -1.542599
