DQN_weights/qnt_0.pt (torch, 19135 bytes, 10 tensors)

weight f4 [20, 3]
0.25227728 -0.41088548 -0.5508347 0.44374293 0.05457756 -0.47756582 -0.21323843 -0.09227912
-0.10550847 -0.17665659 -0.04555942 0.9211902 0.08594125 0.30951118 -0.6462423 -0.12850879
0.38052845 0.31513953 0.19413489 0.36752987 -0.10146079 -0.04851565 0.2429065 0.56203467
0.08052387 -0.34298155 -0.040400725 -0.45045984 0.3794055 -0.383645 -0.5356189 0.46894565
-0.28258637 -0.40327063 0.40841958 0.011480796 -0.1995655 0.13377711 0.4992253 -0.6180151
-0.53835475 -0.49133092 0.16797319 -0.5189494 -0.16810226 -0.5218606 -0.39933905 -0.19030897
0.372449 -0.43536556 -0.6683506 -0.019872515 0.11515241 -0.11197205 0.037068877 -0.4091235
-0.7460379 -0.16360445 0.12283558 0.2982986
00000000: 7d2a 813e 955f d2be 8103 0dbf 4632 e33e
00000010: b88c 5f3d 8283 f4be 2d5b 5abe d6fc bcbd
00000020: d314 d8bd 77e5 34be 849c 3abd 1fd3 6b3f
00000030: f701 b03d 4078 9e3e 2370 25bf cf97 03be
00000040: a0d4 c23e f859 a13e 4ccb 463e e02c bc3e
00000050: adca cfbd 59b8 46bd 7bbc 783e 81e1 0f3f
00000060: b3e9 a43d 479b afbe 3b7b 25bd aca2 e6be
00000070: 7041 c23e 1e6d c4be 521e 09bf a519 f03e
00000080: 29af 90be 7d79 cebe 5f1c d13e f319 3c3c
00000090: e65a 4cbe defc 083e 759a ff3e 3d36 1ebf
000000a0: 9ed1 09bf ba8f fbbe 2a01 2c3e ded9 04bf
000000b0: 0023 2cbe a898 05bf 2b76 ccbe 5be0 42be
000000c0: a3b1 be3e 3ce8 debe 0619 2bbf afcb a2bc
000000d0: 07d5 eb3d 9a51 e5bd 89d5 173d a378 d1be
000000e0: 57fc 3ebf ed87 27be 3891 fb3d 98ba 983e

bias f4 [20]
0.40592894 0.50381863 -0.006504324 0.35646442 -0.40181214 0.46887705 0.17219482 -0.56379133
0.23149645 -0.32035214 -0.37667468 0.3751124 -0.2638382 0.07660037 -0.3143203 0.5041906
0.23464203 -0.54365903 -0.4876193 0.12611541
00000000: ebd5 cf3e 42fa 003f 3922 d5bb 8182 b63e
00000010: 52ba cdbe a710 f03e d753 303e a154 10bf
00000020: 680d 6d3e 3205 a4be 81db c0be bc0e c03e
00000030: cd15 87be a8e0 9c3d 97ee a0be a312 013f
00000040: 0046 703e 3d2d 0bbf 3da9 f9be 6624 013e

weight f4 [20, 20]
0.11435372 -0.0672609 -0.01417172 -0.3117696 0.18978669 -0.14985122 0.030546835 -0.016748533
0.12777483 0.05982883 -0.0018373736 -0.17880395 -0.013591992 0.05189234 0.07563251 0.009202778
-0.19897838 -0.08730241 0.22317627 -0.041692987 0.06233856 0.06725514 0.1157631 -0.52427685
-0.0786869 0.11250259 -0.17323883 0.11189822 -0.018977776 0.10431275 -0.12000178 -0.086701185
0.06797941 0.1268293 -0.061704174 -0.14684081 -0.20778878 -0.039195903 -0.048506662 -0.18709822
0.19305065 0.06533804 0.20454377 -0.19668473 0.045520104 -0.13077825 0.13752913 -0.16377228
0.03617394 -0.1347891 0.06825294 0.009998087 0.09312772 0.2120218 0.048594505 0.09814286
0.21606562 0.2027858 0.11984953 0.087037854 0.19723725 -0.10224343 0.046575487 -0.46526247
-0.07248974 -0.043755867 0.05720824 -0.0071632434 0.03982702 0.22092393 0.10344337 0.099594966
0.1465882 -0.22066984 0.023672745 -0.092684 -0.19462335 0.20488487 0.09845391 -0.02818947
0.17270195 0.05899214 -0.17689595 -0.3630977 -0.17764193 -0.19409451 0.18651137 -0.1357324
-0.22035994 0.08734545 -0.1737778 0.17598991 -0.0066641066 0.08907977 0.22260278 0.10173914
-0.0004274547 0.16469741 0.03538257 0.10314149 0.058088005 -0.065578364 0.10522407 0.4000112
0.15061311 -0.08225833 0.1775347 0.092931315 -0.053421736 -0.24254654 0.0449671 0.06935403
0.12930967 -0.054430664 0.06460038 0.03759229 0.14356136 -0.056023195 -0.20849279 0.10208264
0.21104673 -0.17702402 0.22120431 0.574316 0.045306444 0.06041275 0.17069678 -0.16715203
0.013328597 -0.1349712 -0.014819858 0.08240532 0.019724542 -0.16463147 0.1080735 0.15770087
-0.02614291 0.079380184 0.21372086 -0.12563074 0.045197725 0.21615468 0.08237502 -0.4256928
-0.16850577 -0.08853021 -0.030525316 0.24754092 -0.16292065 -0.11168869 0.09497251 -0.15663365
0.22814806 -0.021457717 0.012424424 -0.13804746 -0.040334508 0.05832892 -0.038792133 -0.12796992
-0.09039353 0.005238647 0.15164924 -0.27561447 -0.084717095 0.030429618 -0.21463948 0.0988751
-0.0023349375 0.11377447 -0.13313082 0.2058024 0.07400061 0.0267784 0.09559658 -0.20986122
-0.14858389 -0.037126157 -0.10203224 -0.19385317 0.064273864 -0.007984219 0.052591175 -0.45876983
0.19151144 -0.12677835 -0.18278082 -0.021580357 0.1251378 -0.12550291 -0.1306064 0.20237026
-0.068595245 -0.11682944 0.13202685 -0.2019862 -0.19318555 -0.1531024 -0.20568049 -0.09279817
0.16334927 0.10988291 0.036281347 -0.19986475 0.07099686 0.06860242 -0.021267584 0.12058323
-0.016710922 0.062084507 -0.049209386 0.02964697 -0.026923237 -0.20332941 -0.19116366 -0.08075179
0.025109112 0.1254465 0.14679173 -0.045084886 -0.14183515 0.15398446 0.173924 -0.33231416
0.2625136 0.06887473 -0.18492383 -0.19675092 0.11280477 0.082765885 0.21586339 -0.15783186
-0.19940865 -0.056493625 -0.08826183 0.13531974 0.045060366 -0.1850875 -0.19522625 -0.1111396
-0.07797767 0.15713035 0.030271381 -0.61708266 -0.08987059 -0.18573906 0.17710547 -0.061760575
0.21885055 0.18333352 -0.015154307 -0.10979062 0.16345993 -0.1698913 0.18782869 -0.1523019
00000000: 4832 ea3d 15c0 89bd 8030 68bc 44a0 9fbe
00000010: 7157 423e 9972 19be 5b3d fa3c 3834 89bc
00000020: 68d7 023e 130f 753d 07d4 f0ba 6218 37be
00000030: f2b0 5ebc 108d 543d 38e5 9a3d 40c7 163c
00000040: fdc0 4bbe 9bcb b2bd 5288 643e 44c6 2abd
00000050: b856 7f3d 10bd 893d 3415 ed3d 0237 06bf
00000060: 9926 a1bd c267 e63d 8565 31be e52a e53d
00000070: 4877 9bbc eca1 d53d 7ec3 f5bd 6490 b1bd
00000080: ca38 8b3d 8adf 013e 84bd 7cbd 705d 16be
00000090: 95c6 54be e28b 20bd ecae 46bd ad96 3fbe
000000a0: 12af 453e f3cf 853d ec73 513e b967 49be
000000b0: 4a73 3a3d bcea 05be 70d4 0c3e ecb3 27be
000000c0: 202b 143d 2706 0abe 33c8 8b3d 04cf 233c
000000d0: bfb9 be3d 3e1c 593e 080b 473d 20ff c83d
000000e0: 4e40 5d3e 15a7 4f3e ac73 f53d e740 b23d
000000f0: 90f8 493e 0165 d1bd f0c5 3e3d e236 eebe
00000100: 8075 94bd 5a39 33bd 3053 6a3d a4b9 eabb
00000110: a821 233d e239 623e 1eda d33d 72f8 cb3d
00000120: 381b 163e 46f7 61be 58ed c13c 1cd1 bdbd
00000130: 584b 47be 57cd 513e 34a2 c93d 9aed e6bc
00000140: c8d8 303e bea1 713d 3624 35be f1e7 b9be
00000150: c4e7 35be b6c0 46be d6fc 3e3e 6ffd 0abe
00000160: 09a6 61be 2ce2 b23d cff2 31be b336 343e
00000170: 945e dabb 746f b63d fcf1 633e 9c5c d03d
00000180: 001c e0b9 70a6 283e 50ed 103d d83b d33d
00000190: b0ed 6d3d f34d 86bd b87f d73d 45ce cc3e
000001a0: 533a 1a3e 0e77 a8bd a8cb 353e c652 be3d
000001b0: c0d0 5abd 1f5e 78be 6c2f 383d 7c09 8e3d
000001c0: c169 043e b0f2 5ebd 344d 843d 60fa 193d
000001d0: c001 133e 9478 65bd 227f 55be b410 d13d
000001e0: a21c 583e c945 35be 6283 623e 6006 133f
000001f0: 4093 393d 5c73 773d 23cb 2e3e e729 2bbe
00000200: 3060 5a3c e435 0abe fdce 72bc 1fc4 a83d
00000210: 5d95 a13c 2795 28be a455 dd3d 567c 213e
00000220: a829 d6bc 1492 a23d a4d9 5a3e 58a5 00be
00000230: 4021 393d a757 5d3e 3cb4 a83d 68f4 d9be
00000240: c78c 2cbe 544f b5bd 3a10 fabc 5e7b 7d3e
00000250: acd4 26be 0abd e4bd f380 c23d 9264 20be
00000260: a59f 693e 18c8 afbc d08f 4b3c 505c 0dbe
00000270: cc35 25bd 4eea 6e3d 80e4 1ebd 8c0a 03be
00000280: 3e20 b9bd f5a8 ab3b f049 1b3e 571d 8dbe
00000290: 2880 adbd 8947 f93c 74ca 5bbe 077f ca3d
000002a0: c005 19bb 9702 e93d 7253 08be ddbd 523e
000002b0: a28d 973d 605e db3c 24c8 c33d dce5 56be
000002c0: 6026 18be 9911 18bd 47f6 d0bd 7281 46be
000002d0: 04a2 833d 3ed0 02bc d869 573d e1e3 eabe
000002e0: 931b 443e 2fd2 01be e52a 3bbe 4ac9 b0bc
000002f0: 2024 003e d683 00be afbd 05be 263a 4f3e
00000300: aa7b 8cbd 4644 efbd 0c32 073e 78d5 4ebe
00000310: 6fd2 45be e0c6 1cbe e89d 52be f80c bebd
00000320: 0845 273e 4b0a e13d c09b 143d 58a9 4cbe
00000330: cd66 913d 6d7f 8c3d 5b39 aebc 57f4 f63d
00000340: 58e5 88bc 534c 7e3d c88f 49bd 34de f23c
00000350: 1f8e dcbc 9635 50be 68c0 43be 3261 a5bd
00000360: a0b1 cd3c 0c75 003e 9250 163e eeaa 38bd
00000370: 3c3d 11be 1aae 1d3e 2219 323e 1525 aabe
00000380: 2f68 863e 320e 8d3d ac5c 3dbe 1379 49be
00000390: 3006 e73d 2981 a93d 4b0b 5d3e ad9e 21be
000003a0: c831 4cbe dc65 67bd 9ec2 b4bd 4291 0a3e
000003b0: 3891 383d 9487 3dbe 64e9 47be 299d e3bd
000003c0: c2b2 9fbd c7e6 203e b0fb f73c 21f9 1dbf
000003d0: 120e b8bd 6132 3ebe 235b 353e a8f8 7cbd
000003e0: 5c1a 603e c8bb 3b3e c549 78bc e8d9 e0bd
000003f0: 0a62 273e fcf7 2dbe 2a56 403e 07f5 1bbe

bias f4 [20]
0.15719922 0.05135618 -0.018519742 0.019103566 -0.09078314 -0.13053522 0.18649918 0.23458144
0.20452179 0.07346514 0.04767462 0.131785 0.2043789 0.059680555 -0.087616496 0.067514375
0.17261706 -0.08568259 -0.1400904 -0.09613052
00000000: d5f8 203e dc5a 523d b7b6 97bc 157f 9c3c
00000010: 83ec b9bd 06ab 05be a4f9 3e3e 1e36 703e
00000020: 296e 513e e474 963d 7646 433d a6f2 063e
00000030: b448 513e 9973 743d 4770 b3bd fa44 8a3d
00000040: 87c2 303e 5b7a afbd dc73 0fbe 14e0 c4bd

weight f4 [20, 20]
0.028770119 -0.011832967 -0.14108184 -0.15291026 0.15652764 0.43635243 -0.026286134 0.033593833
0.21327473 0.13757828 0.07530074 -0.3770418 0.06287358 -0.022636667 -0.018216802 -0.13465293
-0.14166479 -0.029009862 0.2986623 0.123401724 -0.09803346 0.06340465 0.0674921 0.031311173
-0.16469087 -0.30697313 -0.20671341 -0.14458431 -0.06565892 0.16116935 0.1073164 0.96228945
-0.11142294 -0.09635496 -0.1701499 -0.069614105 0.061193712 -0.13871358 -0.03252428 -0.0010934199
0.0973368 0.07280487 -0.06270482 -0.11489644 -0.12608902 -0.33970115 -0.26520485 -0.036564156
0.13895705 -0.06388344 -0.04423397 -0.5739854 0.22883025 -0.071082674 0.024767712 0.104278214
0.115078606 -0.10152692 -0.38626495 -0.03229545 -0.05067742 -0.20536295 -0.055218503 -0.1820828
0.07826728 0.25647593 -0.00093065825 -0.007219374 0.039897393 -0.07982403 -0.09805609 -0.45399746
-0.0021501246 -0.167186 -0.0019529276 0.10290081 0.15249293 -0.121154904 0.13891684 -0.056494348
-0.0807886 0.026787013 0.103598446 -0.1293404 -0.114285365 0.2593454 0.12713405 -0.19307399
0.036256485 -0.042454913 -0.042042766 -0.8024104 0.105345614 0.02441108 -0.1508037 0.18350461
0.034065213 0.1974746 0.02452754 0.012680184 0.027989239 0.13861898 0.14818668 -0.008871273
0.19904852 0.49422088 0.23173758 0.1383411 0.2385319 -0.22088826 0.056923646 -0.31689203
0.043309473 -0.06835152 -0.16826925 -0.06722716 -0.055012856 0.27802286 0.25961608 -0.12552997
0.082662165 -0.18788126 -0.124252684 0.070594676 -0.08703178 -0.27197555 -0.019910466 -0.085215256
0.0700214 0.10410303 -0.1698316 0.3181588 0.20335226 0.19697018 0.13480158 0.086275324
-0.22918488 -0.29665518 -0.010281208 0.019070534 -0.051759094 0.14867112 0.21986946 0.052314352
-0.18789673 0.36579734 0.006017609 -0.0034985244 0.042111672 0.014049605 0.14514133 -0.40572184
-0.16995043 -0.059588842 0.18450344 -0.050946645 -0.10210884 0.27015615 0.16863436 0.14092526
-0.10806388 -0.17123777 0.17436221 -0.07249784 -0.18769163 -0.44435206 -0.19618376 0.19064763
-0.12856442 0.18852684 0.1758821 0.16373041 0.23418967 -0.18343435 0.07369113 0.090823084
-0.011393543 -0.112967804 -0.13818172 0.03375695 0.052298456 0.15779832 -0.01176846 0.11849374
0.15473467 0.26612934 0.13897339 -0.046247795 0.030704487 -0.2038746 -0.16696157 -0.70427597
0.068067074 -0.11347288 -0.131563 -0.021232251 -0.0639359 -0.032624267 -0.038411412 0.15335733
-0.095940724 0.07984987 -0.15283075 0.01734556 0.14331517 0.22196907 -0.17730047 -0.08862758
-0.16570264 0.09869227 0.12585291 -0.6775275 -0.07844465 0.19439144 -0.17451002 -0.10229058
-0.21412209 0.063680544 -0.20837113 0.21646932 0.13612247 0.19472691 -0.15913199 -0.0926776
0.0010550469 -0.17892377 -0.16003083 -0.13989875 0.06253092 0.017652974 0.1587024 0.38242802
-0.13063145 -0.0417022 -0.025015797 0.019614415 0.18159218 -0.009151578 0.04851395 -0.07429372
-0.09720516 0.19506738 0.19600075 -0.010069051 0.20457438 -0.02438615 -0.07621409 0.20609179
-0.11445436 -0.06481749 0.18052612 0.73663485 0.031433623 -0.13749576 0.01599529 0.20000625
00000000: 50af eb3c 10df 41bc c277 10be 8294 1cbe
00000010: c848 203e 9669 df3e 0556 d7bc b099 093d
00000020: b164 5a3e 52e1 0c3e 4637 9a3d 9f0b c1be
00000030: ddc3 803d 8870 b9bc 673b 95bc 75e2 09be
00000040: 9310 11be 17a6 edbc 44ea 983e 0bba fc3d
00000050: c4c5 c8bd 4cda 813d 4c39 8a3d 2540 003d
00000060: b9a4 28be 952b 9dbe aeac 53be e90d 14be
00000070: 2f78 86bd 9409 253e b3c8 db3d 9a58 763f
00000080: b631 e4bd c055 c5bd c63b 2ebe d791 8ebd
00000090: 42a6 7a3d ef0a 0ebe 2e38 05bd 1551 8fba
000000a0: 8458 c73d b81a 953d 626b 80bd d34e ebbd
000000b0: 7b1d 01be 4fed adbe eec8 87be 4cc4 15bd
000000c0: c24a 0e3e 52d5 82bd ae2e 35bd b5f0 12bf
000000d0: 7a52 6a3e cb93 91bd a8e5 ca3c d18f d53d
000000e0: 55ae eb3d 59ed cfbd 85c4 c5be 3c48 04bd
000000f0: 2093 4fbd aa4a 52be cc2c 62bd ea73 3abe
00000100: 984a a03d d050 833e 6bf7 73ba 8090 ecbb
00000110: 736b 233d c87a a3bd a2d1 c8bd 5b72 e8be
00000120: 1be9 0cbb cf32 2bbe 60f9 ffba a9bd d23d
00000130: 1b27 1c3e 1020 f8bd 3740 0e3e 9e66 67bd
00000140: 7e74 a5bd 7070 db3c 6c2b d43d cf71 04be
00000150: 720e eabd ecc8 843e 6e2f 023e 30b5 45be
00000160: ae81 143d 34e5 2dbd 0935 2cbd c56a 4dbf
00000170: 71bf d73d bff9 c73c 496c 1abe a2e8 3b3e
00000180: f787 0b3d c836 4a3e fbed c83c 8cc0 4f3c
00000190: b049 e53c 22f2 0d3e 40be 173e d158 11bc
000001a0: 60d3 4b3e 850a fd3e 9e4c 6d3e 4aa9 0d3e
000001b0: b541 743e 8830 62be c528 693d ac3f a2be
000001c0: 4665 313d e2fb 8bbd c64e 2cbe 65ae 89bd
000001d0: 2955 61bd 0359 8e3e 66ec 843e ee8a 00be
000001e0: c84a a93d f263 40be 3178 febd f193 903d
000001f0: b83d b2bd 6140 8bbe 461b a3bc 5685 aebd
00000200: 6167 8f3d f833 d53d 56e8 2dbe b6e5 a23e
00000210: 933b 503e 8db2 493e 6d09 0a3e 1eb1 b03d
00000220: 71af 6abe 30e3 97be 8372 28bc cf39 9c3c
00000230: 5801 54bd 3e3d 183e 7625 613e 9347 563d
00000240: 0068 40be ca49 bb3e 5d2f c53b 8047 65bb
00000250: 4a7d 2c3d 5030 663c ee9f 143e c6ba cfbe
00000260: 7c07 2ebe 6e13 74bd 78ee 3c3e 6ead 50bd
00000270: 711e d1bd e851 8a3e 7cae 2c3e b64e 103e
00000280: 9850 ddbd f458 2fbe 028c 323e bf79 94bd
00000290: 3c32 40be 1d82 e3be 65e4 48be 2239 433e
000002a0: 64a6 03be 2e0d 413e 701a 343e f2a8 273e
000002b0: 6bcf 6f3e 37d6 3bbe 60eb 963d 7401 ba3d
000002c0: fcab 3abc aa5b e7bd 827f 0dbe ba44 0a3d
000002d0: e836 563d e295 213e 80d0 40bc d9ac f23d
000002e0: c472 1e3e 1b42 883e 0a4f 0e3e 546e 3dbd
000002f0: fa87 fb3c 81c4 50be f9f7 2abe 6e4b 34bf
00000300: c066 8b3d 7864 e8bd 73b8 06be 42ef adbc
00000310: d3f0 82bd 06a1 05bd 4955 1dbd b409 1d3e
00000320: 927c c4bd 5488 a33d aa7f 1cbe 4718 8e3c
00000330: 36c1 123e dc4b 633e 418e 35be 6082 b5bd
00000340: f4ad 29be 2c1f ca3d 96df 003e 7172 2dbf
00000350: 97a7 a0bd 8d0e 473e c1b2 32be b97d d1bd
00000360: d242 5bbe f26a 823d 3e5f 55be 22aa 5d3e
00000370: b063 0b3e 7e66 473e 7ff3 22be c1cd bdbd
00000380: 8049 8a3a cb37 37be 1fdf 23be 9e41 0fbe
00000390: 3610 803d f89c 903c e282 223e 9bcd c33e
000003a0: 40c4 05be edcf 2abd eeed ccbc 69ae a03c
000003b0: 4df3 393e 80f0 15bc 90b6 463d 4e27 98bd
000003c0: 8013 c7bd bebf 473e 6cb4 483e a9f8 24bc
000003d0: f27b 513e 77c5 c7bc 2216 9cbd ba09 533e
000003e0: 0c67 eabd 08bf 84bd d7db 383e 1a94 3c3f
000003f0: 8bc0 003d b0cb 0cbe 8e08 833c 70ce 4c3e

bias f4 [20]
-0.0062688095 0.15458609 0.19822097 0.09540961 0.12582149 -0.18819265 -0.17137763 -0.2160588
0.09383253 0.054943334 0.16620518 0.07645648 -0.030199474 0.14203581 0.022345409 0.016457839
0.057340078 -0.09596894 0.028633587 0.115686625
00000000: 966a cdbb d14b 1e3e 70fa 4a3e 1d66 c33d
00000010: 59d7 003e 93b5 40be 9e7d 2fbe 853e 5dbe
00000020: 452b c03d 430c 613d b131 2a3e 3795 9c3d
00000030: e364 f7bc d671 113e b80d b73c 97d2 863c
00000040: 6edd 6a3d 5d8b c4bd fc90 ea3c 1ced ec3d

weight f4 [20, 20]
-0.043879896 -0.022897055 -0.10032933 -0.08008264 0.20764819 0.04976785 -0.10826239 0.26600528
0.058171507 -0.10344097 0.06532455 -0.027120527 -0.004681181 -0.17537077 0.19348069 0.1609795
-0.06925067 -0.06787795 -0.1392892 0.10500726 0.06973606 0.16071683 0.06834862 -0.16932829
-0.16008838 0.06994408 0.22676629 -0.29702866 0.17686652 0.12132781 0.06740189 0.20936033
0.18268752 0.17982751 -0.16808715 -0.15853696 0.16850044 0.17444804 0.20363851 -0.02197449
0.19531646 -0.10022415 -0.38622534 0.19336477 -0.10314297 -0.21387434 0.045417123 0.10671009
-0.24881901 -0.19392775 0.2542251 0.13938498 0.15841761 0.03499313 -0.12537056 0.1964979
-0.009800967 0.018939838 0.16042805 -0.059785858 0.19619796 -0.3173023 -0.08206956 -0.026423588
0.008995413 -0.1996025 -0.16471313 0.08108554 -0.3663364 -0.10002812 0.14859413 0.25373483
0.0003400967 -0.20884445 0.041694757 -0.08845821 -0.019405346 -0.21674554 -0.012481539 0.17002675
0.109086156 -0.334718 0.019652901 0.17818573 -0.05081773 0.16907385 0.06909979 0.066667974
0.05870148 0.086699605 0.16809396 0.16407597 0.12658936 -0.03902335 -0.07065309 0.22526123
-0.17816582 -0.16306409 -0.20039427 0.17585245 0.21064106 0.0734883 -0.40669352 -0.052452624
0.021007996 0.06850076 0.03443841 -0.030037476 -0.14344965 0.067662045 0.09252312 -0.029100962
-0.06139008 0.06968935 -0.042082746 0.18785404 0.099139675 -0.11505159 0.011118825 0.21204773
-0.15103349 -0.3016711 0.18309052 -0.04531774 0.20031968 -0.11592349 0.17922267 -0.050413594
0.035393093 -0.12705591 0.058461834 0.20531864 0.046914235 -0.123242274 -0.14846413 -0.19087309
-0.018544247 0.061204165 -0.13940583 -0.20829518 -0.097242445 -0.30955735 -0.09002759 -0.16439906
0.1099131 0.21502554 0.0031590678 0.19362457 -0.20409514 0.107538454 0.2461827 -0.003041585
0.027970636 -0.14015031 -0.12713553 0.008761386 0.20244128 -0.1805675 0.20607403 -0.18174829
0.110716194 0.03852766 0.16819301 0.201859 0.059596896 -0.13381907 -0.15863734 -0.22224994
0.22009268 -0.07416255 0.22889483 -0.1329625 -0.013386374 -0.06093267 0.105563864 -0.015058353
-0.03017771 -0.14021465 -0.16789663 -0.056470677 -0.063908145 0.20009044 -0.28058195 0.04928115
-0.059402943 0.16600299 -0.046194486 0.09530695 -0.29834446 0.035936628 -0.16472602 0.07243922
-0.10749246 -0.015431263 0.11460253 0.06960855 0.20466608 -0.06613691 0.07589556 -0.013391897
-0.011762917 -0.2962867 0.045316193 -0.16748023 0.057130273 -0.19772407 0.05386724 0.11492692
-0.13986722 -0.02695576 0.13072924 -0.17361037 -0.0076308283 0.035338573 0.05586505 0.22935605
0.18187687 0.015031397 -0.028969413 -0.11892357 0.19588497 0.3104333 -0.24282551 0.19325444
0.20290022 -0.2110599 -0.086316995 0.053318378 -0.19533783 -0.13837612 0.079742186 -0.012345784
-0.10466131 -0.058750868 -0.14278315 -0.10921983 -0.050202385 -0.2168254 0.101455264 0.052819937
0.13582408 0.184901 -0.33888096 -0.21751577 0.09625656 0.13375914 -0.044048343 0.076341055
-0.20447738 0.16383207 -0.044995647 -0.041072905 0.010055386 0.035543486 0.0047602733 -0.1518542
00000000: 68bb 33bd 9b92 bbbc 7779 cdbd 5e02 a4bd
00000010: baa1 543e 60d9 4b3d acb8 ddbd d831 883e
00000020: 3f45 6e3d dcd8 d3bd e1c8 853d de2b debc
00000030: 9864 99bb 6594 33be cd1f 463e cfd7 243e
00000040: 4cd3 8dbd 9803 8bbd d4a1 0ebe 0c0e d73d
00000050: c8d1 8e3d f492 243e 5cfa 8b3d 6564 2dbe
00000060: 35ee 23be d83e 8f3d 6c35 683e 2414 98be
00000070: 7f1c 353e b77a f83d 010a 8a3d 8e62 563e
00000080: 7012 3b3e b424 383e 0a1f 2cbe 8357 22be
00000090: 618b 2c3e 82a2 323e 9d86 503e d803 b4bc
000000a0: 0a01 483e 5242 cdbd 54bf c5be 6a01 463e
000000b0: 9f3c d3bd e001 5bbe 4e07 3a3d d28a da3d
000000c0: 69ca 7ebe ff94 46be cb29 823e f0ba 0e3e
000000d0: 3a38 223e f554 0f3d 2461 00be bf36 493e
000000e0: 3c94 20bc b827 9b3c 4047 243e 04e2 74bd
000000f0: 1ee8 483e 7275 a2be 1614 a8bd 4876 d8bc
00000100: 7f61 133c 9964 4cbe 8faa 28be 2d10 a63d
00000110: 7290 bbbe 8bdb ccbd 0f29 183e 88e9 813e
00000120: 024f b239 52db 55be 1fc8 2a3d 9429 b5bd
00000130: f6f7 9ebc 8bf2 5dbe 5e7f 4cbc 7e1b 2e3e
00000140: 9068 df3d 2860 abbe 1fff a03c 5276 363e
00000150: 4126 50bd b221 2d3e 3184 8d3d 3889 883d
00000160: f770 703d 908f b13d d320 2c3e 8803 283e
00000170: a4a0 013e f3d6 1fbd 91b2 90bd e1aa 663e
00000180: 1a71 36be 46fa 26be 2834 4dbe aa12 343e
00000190: 4ab2 573e 0981 963d 223a d0be 90d8 56bd
000001a0: f618 ac3c 204a 8c3d 4a0f 0d3d 2711 f6bc
000001b0: 77e4 12be 6692 8a3d c37c bd3d 2465 eebc
000001c0: 2a74 7bbd 4ab9 8e3d f55e 2cbd cf5c 403e
000001d0: be09 cb3d 2ba0 ebbd bb2b 363c 0a23 593e
000001e0: 86a8 1abe a274 9abe 157c 3b3e 189f 39bd
000001f0: 9a20 4d3e 4b69 edbd 2686 373e 7c7e 4ebd
00000200: 59f8 103d f21a 02be ad75 6f3d 0d3f 523e
00000210: 2429 403d 7266 fcbd fb06 18be 3c74 43be
00000220: 1bea 97bc 38b1 7a3d 67c0 0ebe 554b 55be
00000230: 0c27 c7bd 4d7e 9ebe 6360 b8bd 3a58 28be
00000240: 1f1a e13d a82f 5c3e 5d08 4f3b 8545 463e
00000250: 51fe 50be 1f3d dc3d 5117 7c3e 5455 47bb
00000260: ad22 e53c 9083 0fbe d12f 02be eb8b 0f3c
00000270: c44c 4f3e b0e6 38be 1205 533e 391c 3abe
00000280: 2cbf e23d 2ecf 1d3d ca3a 2c3e 20b4 4e3e
00000290: e01b 743d de07 09be d471 22be 7d95 63be
000002a0: fa5f 613e 89e2 97bd 6863 6a3e 5227 08be
000002b0: 8652 5bbc 8994 79bd de31 d83d 4fb7 76bc
000002c0: 3f37 f7bc 6e94 0fbe 18ed 2bbe cc4d 67bd
000002d0: 46e2 82bd 82e4 4c3e 70a8 8fbe 08db 493d
000002e0: 8050 73bd b0fc 293e 6e36 3dbd 4a30 c33d
000002f0: 9bc0 98be 4932 133d f0ad 28be 045b 943d
00000300: 0225 dcbd 68d3 7cbc bbb4 ea3d ed8e 8e3d
00000310: fc93 513e ca72 87bd 226f 9b3d b069 5bbc
00000320: 40b9 40bc e4b2 97be 799d 393d f07f 2bbe
00000330: 6f01 6a3d 2e78 4abe e5a3 5c3d ce5e eb3d
00000340: 5a39 0fbe 53d2 dcbc e3dd 053e ebc6 31be
00000350: 070c fabb 2ebf 103d c0d2 643d 50dc 6a3e
00000360: ee3d 3a3e 4046 763c 4351 edbc 338e f3bd
00000370: 1296 483e 1df1 9e3e 40a7 78be 7ee4 453e
00000380: 13c5 4f3e 1620 58be f7c6 b0bd 5f64 5a3d
00000390: a406 48be 78b2 0dbe df4f a33d f945 4abc
000003a0: ab58 d6bd c0a4 70bd bf35 12be a5ae dfbd
000003b0: 04a1 4dbd 7a07 5ebe c7c7 cf3d b859 583d
000003c0: 7815 0b3e b056 3d3e ce81 adbe 74bc 5ebe
000003d0: 2922 c53d 28f8 083e 096c 34bd b358 9c3d
000003e0: 8562 51be 98c3 273e 5b4d 38bd 103c 28bd
000003f0: 59bf 243c 0c96 113d 11fc 9b3b ab7f 1bbe

bias f4 [20]
-0.22470346 -0.11396991 -0.09627044 -0.023132319 0.017294064 0.05546806 -0.036999296 0.1092084
-0.06693189 0.14266577 -0.09154273 0.22223105 0.026921201 0.07115498 0.02204302 -0.1558768
0.060341526 -0.04488885 -0.02213429 -0.07537063
00000000: aa18 66be 0e69 e9bd 7029 c5bd fd7f bdbc
00000010: 48ac 8d3c 7a32 633d 938c 17bd a7a8 df3d
00000020: 9613 89bd fa16 123e c17a bbbd 8990 633e
00000030: da89 dc3c b4b9 913d 9093 b43c 2b9e 1fbe
00000040: ad28 773d 5fdd 37bd f852 b5bc eb5b 9abd

weight f4 [101, 20]
-1.5448967 -1.4006058 -0.14006859 0.078845836 -1.5721598 -0.16862758 -1.3754541 -1.7572685
-1.4709953 0.12894748 -1.4975479 0.09671363 0.1196579 0.08948613 -1.2954303 -0.17559132
-1.7307305 0.15332389 -0.19547482 -0.13987911 -1.5816278 -1.453226 -0.19965059 -0.0075645545
-1.3752292 0.1162249 -1.6262352 -1.7399493 -1.3550892 -0.08948479 -1.513409 -0.092993155
-0.014193445 -0.0024226187 -1.3509274 0.028756505 -1.7360438 -0.2089513 -0.16108781 -0.054373898
-1.4248921 -1.5521768 0.21228044 -0.035273466 -1.4785137 -0.04596991 -1.2689284 -1.6523252
-1.4502691 0.1589714 -1.778871 -0.17186628 -0.016370473 0.2275373 -1.6198468 0.122638196
-1.6036649 -0.2328185 -0.023409624 -0.1812131 -1.7515167 -1.2258233 0.1196626 0.16078061
-1.5904899 0.08142115 -1.3307502 -1.7378448 -1.2925189 0.064647056 -1.6850799 0.08523616
0.12952112 -0.15585458 -1.6680925 -0.028945686 -1.5824897 0.18853372 -0.1380801 -0.12638661
-1.3987529 -1.2350785 -0.07314509 0.064959615 -1.398757 -0.012533957 -1.5821339 -1.4645356
-1.6324333 -0.18270457 -1.4910079 -0.009603786 0.07114729 0.00987102 -1.726127 0.09917634
-1.7413186 -0.1380114 0.15002574 -0.03990252 -1.6529121 -1.4737734 0.07886989 -0.038607728
-1.3218231 0.010965139 -1.2108494 -1.4457647 -1.4360098 -0.039373185 -1.4805363 -0.082766555
0.016893303 0.04387991 -1.7087066 -0.10406453 -1.6909617 0.11407959 0.20501846 0.17874546
-1.4057584 -1.4737183 0.031031378 -0.16106321 -1.4490718 -0.028064061 -1.3361095 -1.7408254
-1.6362622 0.091689505 -1.452087 -0.2460673 -0.16103157 0.14171249 -1.6422856 -0.007863151
-1.5690254 -0.054274585 0.079779975 0.05121337 -1.6266644 -1.3842834 0.0912368 0.092631966
-1.2590258 0.019310959 -1.5081246 -1.6404809 -1.5981028 0.02471113 -1.3171312 -0.18446039
-0.0037137286 -0.21242444 -1.5194602 -0.1482705 -1.5198998 -0.083047524 0.055906143 -0.1959115
-1.6516417 -1.379549 0.08974096 0.15735108 -1.4891657 0.024036359 -1.3629262 -1.6480682
-1.6690605 0.02092005 -1.3308587 0.13179423 0.1097109 -0.08695272 -1.46167 -0.0295598
-1.3855522 -0.16815047 0.071286395 0.1742693 -1.4956753 -1.506175 0.18558708 -0.19716604
-1.3214583 0.007766477 -1.5078074 -1.6871638 -1.5103387 0.09672664 -1.486774 -0.2160388
-0.059248194 -0.10025659 -1.6169156 0.0654152 -1.3776307 -0.117034405 0.20521559 -0.092923746
-1.5884713 -1.1631037 -0.10103173 0.034226682 -1.6319984 0.03951603 -1.3208294 -1.401998
-1.4486661 -0.012703387 -1.6687777 -0.15845887 -0.13670202 -0.012361188 -1.5699553 0.034843966
-1.535795 -0.0036527484 0.19489947 0.1877383 -1.4150848 -1.472717 0.17584823 -0.05706429
-1.5498421 0.049867786 -1.4609158 -1.6625814 -1.2589058 -0.016805626 -1.6664479 0.084518485
0.00028407972 -0.030496987 -1.6019152 0.11765063 -1.3688277 -0.16331856 -0.19032063 0.18566442
-1.6408117 -1.2229403 0.15226264 0.02413826 -1.5272282 0.08071236 -1.4566511 -1.6322644
-1.475194 0.085017234 -1.4118279 0.11504845 -0.0039388677 -0.05843725 -1.6828532 -0.1804861
00000000: 2dbf c5bf 0d47 b3bf 246e 0fbe ed79 a13d
00000010: 883c c9bf b5ac 2cbe e10e b0bf 2dee e0bf
00000020: 9349 bcbf cf0a 043e a6af bfbf cc11 c63d
00000030: 330f f53d 8144 b73d a9d0 a5bf 36ce 33be
00000040: 9488 ddbf f000 1d3e 8d2a 48be 783c 0fbe
00000050: c872 cabf 4f03 babf 3471 4cbe 15e0 f7bb
00000060: 8307 b0bf 5207 ee3d 7a28 d0bf a9b6 debf
00000070: 9073 adbf cd43 b7bd 63b7 c1bf 3273 bebd
00000080: a08b 68bc ccc4 1ebb 30eb acbf c392 eb3c
00000090: af36 debf 54f7 55be 34f4 24be 2ab7 5ebd
000000a0: dd62 b6bf bbad c6bf 0b60 593e e97a 10bd
000000b0: f03f bdbf f24a 3cbd 3f6c a2bf 647f d3bf
000000c0: 6ba2 b9bf 66c9 223e 0cb2 e3bf b7fd 2fbe
000000d0: 5f1b 86bc 8aff 683e 2457 cfbf bc29 fb3d
000000e0: e444 cdbf f967 6ebe 8ac5 bfbc ed8f 39be
000000f0: b331 e0bf c7e7 9cbf aa11 f53d aca3 243e
00000100: 2c95 cbbf 22c0 a63d 0656 aabf b371 debf
00000110: 4271 a5bf ad65 843d b3b0 d7bf 4c90 ae3d
00000120: 2fa1 043e 5898 1fbe 0e84 d5bf 811f edbc
00000130: 068f cabf fc0e 413e df64 0dbe 7e6b 01be
00000140: 560a b3bf 0d17 9ebf 18cd 95bd 8c09 853d
00000150: 780a b3bf 3a5b 4dbc 5d83 cabf e775 bbbf
00000160: 93f3 d0bf e816 3bbe 59d9 bebf 3359 1dbc
00000170: acb5 913d 0fba 213c bbf1 dcbf f71c cb3d
00000180: 87e3 debf dc52 0dbe 59a0 193e d370 23bd
00000190: a092 d3bf 9ba4 bcbf 8986 a13d 2323 1ebd
000001a0: 8031 a9bf 20a7 333c 1dfd 9abf d10e b9bf
000001b0: 2bcf b7bf c745 21bd 3782 bdbf 8381 a9bd
000001c0: d363 8a3c 6cbb 333d e6b6 dabf c91f d5bd
000001d0: 6f71 d8bf 8fa2 e93d 5cf0 513e 0d09 373e
000001e0: e4ef b3bf cda2 bcbf 8435 fe3c c1ed 24be
000001f0: 2f7b b9bf 9ae6 e5bc a305 abbf 5ed3 debf
00000200: 0a71 d1bf b5c7 bb3d fddd b9bf 11f9 7bbe
00000210: 76e5 24be 141d 113e 6a36 d2bf 72d4 00bc
00000220: d3d5 c8bf 074f 5ebd af63 a33d 1cc5 513d
00000230: 8a36 d0bf 3330 b1bf 5cda ba3d d4b5 bd3d
00000240: c227 a1bf 0432 9e3c 3a0a c1bf 47fb d1bf
00000250: a28e ccbf ff6e ca3c c197 a8bf 2fe3 3cbe
00000260: 0762 73bb cb85 59be ac7d c2bf 39d4 17be
00000270: 148c c2bf d214 aabd d7fd 643d 069d 48be
00000280: ff68 d3bf 1095 b0bf 1cca b73d a420 213e
00000290: fb9c bebf e6e7 c43c 5e74 aebf e6f3 d2bf
000002a0: c6a3 d5bf 8660 ab3c 9459 aabf 11f5 063e
000002b0: 1cb0 e03d 4514 b2bd 0118 bbbf 6527 f2bc
000002c0: c659 b1bf a32f 2cbe 9afe 913d a773 323e
000002d0: 4a72 bfbf 58ca c0bf 8a0a 3e3e e5e5 49be
000002e0: 8c25 a9bf ee7d fe3b d5ff c0bf fcf4 d7bf
000002f0: c752 c1bf 9e18 c63d 9c4e bebf 4639 5dbe
00000300: 3cae 72bd 5453 cdbd 17f7 cebf 68f8 853d
00000310: 3456 b0bf bcaf efbd 0924 523e ce4e bebd
00000320: 0753 cbbf 95e0 94bf b9e9 cebd 4731 0c3d
00000330: 53e5 d0bf 90db 213d f010 a9bf ac74 b3bf
00000340: e46d b9bf de21 50bc 829a d5bf 0b43 22be
00000350: 9dfb 0bbe 9586 4abc 4cf4 c8bf 8cb8 0e3d
00000360: ee94 c4bf f362 6fbb ba93 473e 783e 403e
00000370: 8021 b5bf fe81 bcbf 8f11 343e 3fbc 69bd
00000380: 3a61 c6bf 2a42 4c3d 4aff babf 78cf d4bf
00000390: d323 a1bf f4ab 89bc 2a4e d5bf 0718 ad3d
000003a0: 89f0 9439 d1d4 f9bc 8f0b cdbf d0f2 f03d
000003b0: bf35 afbf fb3c 27be 69e3 42be d01e 3e3e
000003c0: 1e06 d2bf 4f89 9cbf bdea 1b3e 9abd c53c
000003d0: 377c c3bf 864c a53d 8b73 babf 0aee d0bf
000003e0: 28d3 bcbf 841d ae3d c7b6 b4bf 869e eb3d
000003f0: 9e11 81bb e65b 6fbd bc67 d7bf 59d1 38be

bias f4 [101]
-1.6847874 -1.7565181 -1.6191801 -1.5157219 -1.5460902 -1.6137973 -1.5432478 -1.6603658
-1.6879485 -1.6169983 -1.510142 -1.2494099 -1.3233418 -1.3988835 -1.3098161 -1.3550636
-1.3362497 -1.3539971 -1.5777792 -1.3212762 -1.3725635 -1.5689982 -1.4099934 -1.2878739
-1.5901234 -1.4364887 -1.4413857 -1.3763012 -1.5850998 -1.6525397 -1.2432622 -1.3434759
-1.3843623 -1.3771313 -1.3908939 -1.3604277 -1.5868764 -1.3203418 -1.6364605 -1.5808656
-1.571658 -1.480736 -1.376645 -1.1216327 -1.3779043 -1.5646639 -1.7159252 -1.4365655
-1.5215584 -1.5520997 -1.396515 -1.5277073 -1.6132933 -1.5229554 -1.5402501 -1.3679717
-1.3882062 -1.568578 -1.5336211 -1.4203 -1.3094416 -1.399257 -1.4069296 -1.4252744
-1.414751 -1.2442181 -1.6725403 -1.1760314 -1.4419531 -1.5869322 -1.6102885 -1.4246913
-1.4699079 -1.5159479 -1.2667348 -1.5929446 -1.5064358 -1.3222944 -1.4656386 -1.6337379
-1.678133 -1.6434563 -1.217757 -1.5068371 -1.6104605 -1.5483055 -1.6315453 -1.4208165
-1.6580061 -1.2988112 -1.437877 -1.3937347 -1.5240839 -1.5661284 -1.6541891 -1.3982018
-1.4957656 -1.5981636 -1.763719 -1.4322776 -1.473019
00000000: 1da7 d7bf 96d5 e0bf 4b41 cfbf 2d03 c2bf
00000010: 49e6 c5bf e990 cebf 2589 c5bf de86 d4bf
00000020: b20e d8bf cdf9 cebf 554c c1bf aaec 9fbf
00000030: 4463 a9bf 9d0e b3bf 0ea8 a7bf b972 adbf
00000040: 3b0a abbf c74f adbf abf4 c9bf 941f a9bf
00000050: 29b0 afbf efd4 c8bf aa7a b4bf 0dd9 a4bf
00000060: 2a89 cbbf ddde b7bf 547f b8bf a32a b0bf
00000070: 8de4 cabf 6c86 d3bf 3723 9fbf 05f7 abbf
00000080: c932 b1bf d745 b0bf d008 b2bf 7f22 aebf
00000090: c41e cbbf f600 a9bf 8a77 d1bf ce59 cabf
000000a0: 172c c9bf c288 bdbf e735 b0bf a991 8fbf
000000b0: 2b5f b0bf e846 c8bf 70a3 dbbf 61e1 b7bf
000000c0: 6dc2 c2bf 34ab c6bf 01c1 b2bf ea8b c3bf
000000d0: 6580 cebf 34f0 c2bf ea26 c5bf b219 afbf
000000e0: beb0 b1bf 2ac7 c8bf b24d c4bf 64cc b5bf
000000f0: c89b a7bf da1a b3bf 4516 b4bf 646f b6bf
00000100: 9016 b5bf 8a42 9fbf cd15 d6bf 3288 96bf
00000110: eb91 b8bf 9820 cbbf ef1d cebf 495c b6bf
00000120: f125 bcbf 950a c2bf 5e24 a2bf 9ce5 cbbf
00000130: e3d2 c0bf f140 a9bf 0c9a bbbf 531e d1bf
00000140: 10cd d6bf c75c d2bf 76df 9bbf 0ae0 c0bf
00000150: 9223 cebf e02e c6bf 7ad6 d0bf 51dd b5bf
00000160: 8b39 d4bf 723f a6bf 5b0c b8bf e665 b2bf
00000170: 2e15 c3bf e576 c8bf 78bc d3bf 47f8 b2bf
00000180: 3f75 bfbf a090 ccbf 8bc1 e1bf df54 b7bf
00000190: e38b bcbf
