DQN_weights/qnt_0.pt (torch, 29631 bytes, 10 tensors)

weight f4 [16, 3]
00000000: 099c 903d a08f 903e 0044 1c3f a39d 253f
00000010: e1d5 e9be 010b e1be 828c 033f 437a 11bd
00000020: 456a b5be 0ac3 833d 356d 793c 0935 053f
00000030: 6e25 d13e fbeb a83e c91b 44be 7bd4 033f
00000040: 8f49 a7be 1032 bb3e ccb8 ad3d e2f7 b1be
00000050: cc2a e33e 7872 55be bb7b c1be 7316 e8be
00000060: 218c 203e 5197 19bc 4c51 593e bf3c eb3e
00000070: 8a54 fbbe 3a98 a2be 7552 bbbe 5449 e13e
00000080: fbaa 68be 504f f6be 5431 85be 6834 e2be
00000090: d090 ebbd 053f d63e 6e75 7cbb 31bd bf3d
000000a0: 4372 b23e 71a4 7bbf 196a 2d3d d7f1 f7be
000000b0: bf19 cfbe 9ef5 9bbe a862 6bbc 0fe3 4fbf
0.07061011 0.28234577 0.6104126 0.6469366 -0.4567099 -0.43953708 0.5138627 -0.03551699
-0.3543264 0.06433685 0.015223791 0.5203405 0.4084887 0.3299254 -0.19151224 0.51496094
-0.32673308 0.36561632 0.08482513 -0.34759432 0.4436859 -0.20844448 -0.3778971 -0.45329627
0.15678455 -0.009374456 0.21222419 0.45944783 -0.49087936 -0.31756765 -0.36586347 0.44001257
-0.22721474 -0.48107386 -0.26014197 -0.44180608 -0.1150223 0.41844955 -0.0038522142 0.09362257
0.348528 -0.9829779 0.04233751 -0.48426697 -0.4044933 -0.3046083 -0.014366783 -0.8120584

bias f4 [16]
00000000: 6b48 a33d 9d48 da3d 5c9b f23e fcdd 6f3e
00000010: 798a 92be 1024 f23e 4b84 8b3e 84e2 a8be
00000020: b2e0 b4be cd61 e2be f0a2 a5be a6b8 693e
00000030: ce34 ae3e d057 ee3e 32ac 2abe 6b6d 96be
0.07972797 0.10658381 0.47384155 0.23424524 -0.2862127 0.47293139 0.2724937 -0.32985318
-0.3532768 -0.4421524 -0.32350874 0.22824344 0.34024662 0.4655137 -0.1666725 -0.29380354

weight f4 [32, 16]
00000000: 7fcd 5d3d 7ecd 363e 2bbd 863d a3d5 0b3e
00000010: 44e1 ff3d d072 943d 78cf 87bd a06c 243c
00000020: eb24 d73d d0e8 42bd ba6e a5bc 803c 983c
00000030: 2587 9dbb 2f48 843d c265 6a3e 001b 5d3e
00000040: 40b7 36ba 7a67 543e a9c1 c53d ae73 2fbd
00000050: 1166 5fbc f0ab bb3c 788b 433e 5aeb 703e
00000060: 7a4d bb3c bef7 4bbe 4873 a33d c092 243e
00000070: a45c f63c ce70 60be 40fe 80bb bcf1 1bbe
00000080: 2511 c1bd d82f 193e 765c c63d 2e0e 25be
00000090: b555 30bb dc2b bfbd 24b1 edbd 1848 5f3e
000000a0: 1ac7 a03b 1889 6abe 12ac ccbd ea52 0e3e
000000b0: d987 b7bd f7e8 30be 9077 003e a54b 113e
000000c0: eb01 273d b82c df3d 8eed f73d 4b41 65be
000000d0: c490 cfbd 2800 833d d063 353e 405b 51bc
000000e0: 3115 293e 0cad 3d3e 7f98 6f3e 34d4 ef3d
000000f0: 81d5 5d3d 6c26 bcbd 1473 863d 57ef 05be
00000100: 8c04 5b3e beb5 75be 372c 3c3d d3d6 84be
00000110: af1c 173e 1402 bfbd 38b1 3b3e c0f2 09be
00000120: 8c96 3e3e c4bf 16be c124 553e 9699 76be
00000130: 3f84 25be 0911 80be 0c89 343e f6f6 9d3d
00000140: 38c5 4ebe aaed 403e b1bc 2b3e f62d 173e
00000150: f6d3 16be 1a8d 5a3e 74fd 7b3e f239 573e
00000160: 7e6d 723e b84f 34bd c342 c1bc c056 b53d
00000170: bf07 fb3c 21ac 363e b612 273e 27cb 0dbe
00000180: e928 38bc ae52 563e ec59 0d3e 4ce5 46be
00000190: 0649 56bc 96c5 4dbe 60b5 e6bc 88b5 5a3e
000001a0: dc60 0d3e 7cd7 a53d f50d 0cbe c060 273c
000001b0: d2ae 4a3e 44ee 80bd c037 6fbe 6c43 c93d
000001c0: 7bbc 193e 1434 b73d 3419 53be 09b0 093e
000001d0: ee40 f5bd f076 6dbe 9239 4b3e 8ca4 b13d
000001e0: 6adf fa3c 1044 a5bd fde1 483e 8037 28bd
000001f0: 830c 703e 600f 5abd 8e64 183e 25a3 cfbd
00000200: ca61 8ebd 0090 f53b 3ffa 4e3e 9a8e 3dbe
00000210: 7ef4 1abe f853 8dbd 22a1 4d3e 9041 f0bc
00000220: b9f6 d8bc 1407 033e 32fa 423e a0e7 38be
00000230: 0be9 043d 7e78 993d 4c68 2a3e 9640 973e
00000240: 5020 1f3e e0db 5e3e 4f28 483e bd2a 01be
00000250: cc50 4e3e 8021 14bb 5a0f 51be 220a 47be
00000260: fad7 d1bb 8438 e43d 9f0c 233c e85d b6bd
00000270: 9ba7 c1bd ed33 20be 24d3 f0bd 916e 003e
00000280: a65f ae3d e00e f5bd 001a 9fbd f976 3dbe
00000290: b72c b73d dedf 563e 40a4 d63d 1060 bd3d
000002a0: eda8 fd3d b4ad 9dbd acb7 e13d 8a22 753e
000002b0: be09 5dbd 8226 cf3a d896 e83d 9b39 a1bb
000002c0: 163f f5bd 8e8a 45be 359b 2cbc d3aa e5bd
000002d0: 23e4 85bd b09a f93c 6053 3ebc 54f5 683e
000002e0: d92c c83b 8087 01bb 356c f23d 905f bdbc
000002f0: 3420 103e f3b3 e8bd 54bf bcbd 5c49 443a
00000300: 4c13 f43b 8a7e 0abe 7f0b a5bd 56c4 ccb9
00000310: 3410 f83d ec0c 523e 347a 463e 8889 3ebd
00000320: c7c5 553e e01f 603e bb91 b63d 58cd 0e3d
00000330: 02b9 a93c 2cf5 a43d 20df 743d 55ae 063e
00000340: 8a82 a5bd b0a6 cfbc a1c5 943d 5f35 1d3e
00000350: 2e35 a93c 0a09 66be 58cd 73be 183b 633d
00000360: b375 2c3e 80b1 ab3d 8f6a e73d f8cc 7ebd
00000370: 4c36 63be 59c2 f53d 804d a8bc 04c5 433e
00000380: 14c1 853e 94eb 8b3d b1d0 9a3e c1e7 23be
00000390: 827b 14be ae14 45be 8881 47be f07d a6bd
000003a0: 24ee 753e 6c6f 123e e68a 70be 4453 56be
000003b0: afef 09be 9acb a53c 9e8b 113e 8648 36bd
000003c0: 06e4 563e e4a6 80bd 9736 f3bd 33db 383d
000003d0: 370c 0ebe 788a 47bd 08ec fabd 1ebe 4cbe
000003e0: 5924 973d 20c6 223e eec7 13be 14a9 45be
000003f0: c554 a93c 13a3 4dbd 0c38 aa3d 0a87 c73c
0.054151054 0.17851827 0.0657905 0.13655715 0.12494138 0.07248461 -0.066313684 0.010035664
0.105050884 -0.04758531 -0.0201944 0.018583536 -0.0048073702 0.064590804 0.2289038 0.21592331
-0.00069700554 0.20742598 0.09656078 -0.04283493 -0.013635174 0.022909135 0.19096172 0.2352728
0.022864092 -0.19918725 0.079809725 0.16071606 0.030073471 -0.21918032 -0.003936559 -0.15228933
-0.09427098 0.14959657 0.09685604 -0.1611869 -0.0026906554 -0.093345374 -0.116060525 0.21804845
0.0049065473 -0.2290386 -0.09993757 0.13898817 -0.08961458 -0.17276369 0.1254561 0.14189012
0.040773313 0.10897201 0.12105857 -0.22388189 -0.10135034 0.06396514 0.17713857 -0.012778103
0.1651199 0.18523043 0.23398016 0.117103964 0.05415869 -0.09187016 0.06564918 -0.13079582
0.21388453 -0.2399511 0.045940604 -0.25945148 0.14757036 -0.09326568 0.18329322 -0.13471508
0.18612117 -0.1472159 0.20814802 -0.24082026 -0.16163729 -0.25012997 0.17630404 0.0771312
-0.2019242 0.18840662 0.16771199 0.14763626 -0.14729294 0.21342888 0.24608403 0.21018198
0.2367458 -0.04402134 -0.023591405 0.08854437 0.030643342 0.178391 0.16315731 -0.13847028
-0.0112402225 0.20929977 0.13803834 -0.19423407 -0.013078934 -0.20094904 -0.028162658 0.21358311
0.1380648 0.08097741 -0.13677199 0.010215938 0.19793251 -0.062954456 -0.2336111 0.09827313
0.15013306 0.0894548 -0.20615083 0.13446058 -0.11975275 -0.23189902 0.1984618 0.08673963
0.03062411 -0.080696225 0.19617458 -0.041068554 0.23442273 -0.05323732 0.14882109 -0.10138539
-0.069522455 0.007493973 0.20212649 -0.1851143 -0.15132329 -0.069007814 0.20080999 -0.029328138
-0.026484834 0.12795669 0.19040754 -0.18057108 0.03244881 0.07493685 0.16641349 0.29541463
0.1553967 0.21763563 0.19546627 -0.1261396 0.20148009 -0.0022602975 -0.20416012 -0.19437459
-0.0064039202 0.11143592 0.00995174 -0.0890463 -0.09455796 -0.15644808 -0.11759022 0.12542178
0.08514337 -0.11965728 -0.07768631 -0.18502416 0.089440756 0.20983836 0.10480547 0.09246838
0.12385736 -0.07699147 0.11021361 0.23938957 -0.05396437 0.0015804323 0.11356896 -0.004920197
-0.11974923 -0.19291136 -0.010535051 -0.11214223 -0.06537654 0.030469269 -0.011616558 0.22749835
0.006108862 -0.0019764602 0.11837045 -0.023116857 0.14074785 -0.113624476 -0.092161804 0.0007487738
0.0074485894 -0.13524833 -0.08058833 -0.00039056194 0.121124655 0.20512742 0.19382554 -0.04651788
0.20876227 0.2188716 0.08914515 0.0348638 0.020718101 0.08054575 0.0597831 0.1315244
-0.08081539 -0.025348037 0.07264257 0.1535239 0.02065524 -0.22464386 -0.23808801 0.055476278
0.16841774 0.08383465 0.11299621 -0.062207192 -0.22188681 0.119999595 -0.020544767 0.19118124
0.2612387 0.06832042 0.30237344 -0.16006376 -0.1450024 -0.1924617 -0.19483006 -0.081294894
0.24016625 0.14300317 -0.23490486 -0.20930201 -0.13470338 0.020238686 0.14213416 -0.044502757
0.20985422 -0.06281832 -0.118756466 0.04513092 -0.13871847 -0.04871604 -0.12252051 -0.19994399
0.0737998 0.15895891 -0.14431736 -0.1930278 0.020670304 -0.050204348 0.08311471 0.024356384

bias f4 [32]
00000000: 4393 d43c 074a 1dbe 8ad4 d13d 7bbb 703d
00000010: 2578 1bba e97d 863d 17dd 28bc eb80 9e3d
00000020: 9143 9bbd 8796 29bc e7c7 b03d 1ba1 d9bd
00000030: b555 2fbe b284 4b3d 4ea6 ce3d 2502 7a3e
00000040: f711 7a3d f518 9dbd d81c c2bd 6e92 63be
00000050: e53a 173e e999 dbbd 5303 273e 912e 54be
00000060: b378 e7bd dc02 003e 88a8 893c ddbf 493e
00000070: a24e 00be f753 c7bd b2f6 5abe 4cc5 4abd
0.025949126 -0.1536027 0.10245617 0.058772545 -0.00059306837 0.06566984 -0.010306618 0.07739433
-0.07581247 -0.01035083 0.08631878 -0.106264316 -0.17122538 0.049687095 0.10090314 0.2441488
0.06105229 -0.07670776 -0.09478158 -0.22223827 0.1476856 -0.107227154 0.16309862 -0.20720889
-0.113023184 0.12501091 0.016803995 0.19702096 -0.12529996 -0.09732812 -0.2138317 -0.049504563

weight f4 [32, 32]
00000000: ca3e e03c 982f 753d eb2d 2a3e 0785 c5bd
00000010: ae2a 1c3d 9f88 e8bd 18cb 68bd 2044 adbd
00000020: 34aa a93d a45e 593d 358b e43d b613 b1bd
00000030: d0a2 14be 95eb 7b3d 1034 21bd ad08 253d
00000040: ca2c b7be 7c61 e0bc 566a 94bd 3c1e 8bbe
00000050: 7f96 043e 9149 12be 89cd 133e b858 ca3d
00000060: c050 743b 958b 933d 16fc f83d 89f7 813d
00000070: 2f94 023e 28fa cebc b0cf 493d 606c b9bb
00000080: 9ac9 adbb 1cb8 8e3d 6a05 6bbd 52bb c63c
00000090: 4413 c13d 172e 1c3e f86e 91bc f330 0cbd
000000a0: a768 753d d4c0 cc3c bdb1 dc3d d656 953d
000000b0: 73fa 0f3e 2cdd 1ebd f6c1 e73d 5456 8a3d
000000c0: 58c0 60be 5161 efbd e256 9a3d 7544 7eba
000000d0: 57a8 8fbd b033 823c 9f80 cdbd f7bc f5bd
000000e0: 937d a5bd 7e87 983d 9121 02be 7692 dabd
000000f0: 3e3c dcbd c692 9e3d 1358 3a3e 2c8a 32bd
00000100: f84b cabc 8fe4 0b3e 93dd b6bd 07b7 533e
00000110: a5fb d93d a6d7 29be 000c 233c 7e97 9ebd
00000120: 52e2 3abe 1a0d e43d 084f 253e f084 153c
00000130: dcaa 573d 235e d3bd e232 be3d ca72 583e
00000140: 94d3 213e 0815 f73b a4eb 8e3c 45ec 15bd
00000150: e032 4c3e 1a0d 2bbe ff4e d2bc 298f 9c3c
00000160: c666 da3d 50f0 4336 1b6c 13be ae56 44bc
00000170: 4aa0 f83d a3d2 203e fd33 00be fc94 903d
00000180: 6813 013e de8d 913d c09c 3dbb d1c8 b1bc
00000190: c4ff 72bd 3aad aa3d bc6b 3abd 57cf 2abd
000001a0: 240d 22be 8d22 e9bc 7aba e03d 0623 db3d
000001b0: 4df2 ed3d 18fb 9b3d 8085 0cbe b272 8ebb
000001c0: 8e22 753e fecf cfbd 9d3f b03d ae1e 98bd
000001d0: fe45 fabb a050 32be 906c 8a3d f21b bf3d
000001e0: 9773 313d ac5f 8ebd 2f64 28be eb1f 2f3c
000001f0: e10d 163e 909a 56bc df22 3dbe 0692 e33d
00000200: a196 2c3e 502e ffbc 76e3 993d 4d34 213e
00000210: c32f 7f3c 3fff 93bd 69d0 193e 8e7e f8bd
00000220: 18b2 b5bc 93fa d93c b2bd 0ebe 510f 2dbe
00000230: 3120 483e 56f1 f1bd 26a6 f53d 95b4 b83c
00000240: e447 7f3e 74cd e5bc 363b ff3c d624 e6bd
00000250: 331b 73bc f385 bebd 4743 7d3d 4e06 cabd
00000260: aba1 2e3e 4bcb 0dbe dea0 a53d 340e 083e
00000270: c480 04be 70b9 eebd b7f4 7bbd 7284 29be
00000280: 5316 c43d 8021 e0ba 30b5 b2bd a7a0 d73d
00000290: 4314 073e 104d 54bd 00c7 693a 3775 a2bd
000002a0: 0190 0bbe 8578 d9bd 9471 a13c 7053 17bd
000002b0: 6a51 afbd 725e 9fbd 002a f939 4187 bbbd
000002c0: 0fee 2cbe 3fba 163e 8387 fabd a4ab d7bd
000002d0: ce78 fdba fd6a b0bd 1fa7 e0bc daea e03d
000002e0: bf81 06bd 5321 16be 37b1 e8bd fc27 efbd
000002f0: 8e36 e33d 8029 833a 14de e33d 008d 17bc
00000300: f055 15bd 0f5c 193e c045 00bd c970 c5bb
00000310: 44cb b2bc 40d1 1cbb 1832 47bd ecde 0fbe
00000320: 4626 33bb 6105 3d3e 93f9 fa3d c30a 2e3e
00000330: 5cf4 0b3e a02a 923d 86dd febd 5944 a7bd
00000340: 20a7 563d f9d7 42bd 807c 123e 96be 563d
00000350: 3412 52bd 9bc0 02be 6aea 54bd 40a7 183e
00000360: be64 823d 33aa 403e 16d1 9a3d 8f7e 953d
00000370: 5d8a 093e a49f 4bbd 3baa c7bd 70b2 6abc
00000380: eee2 26bd 80f6 bd3a 5b89 a4bd ff42 b4bd
00000390: c5f7 d8bc ecae 843d e070 143c b42b 503d
000003a0: 8c00 8d3d cf1d f43d ff62 1bbe 9017 9e3c
000003b0: b5fb e7bd eaa3 f4bd fe84 f83d ac7a 45bd
000003c0: aa3e a1bd 5614 0c3e 1f91 c5bc 5d70 cfbd
000003d0: a689 ccbd 2ed9 fdbd a894 5fbc 9508 1dbe
000003e0: abdd 103c dc38 07bd 6300 2f3e ebdd 8a3d
000003f0: f04a fb3c 31e0 27be 68a5 1a3e a49a 803d
0.02737369 0.059859842 0.16619079 -0.096445136 0.03812664 -0.113541834 -0.05683431 -0.084602594
0.08284417 0.053068772 0.11159364 -0.08646338 -0.14515233 0.061503965 -0.03935629 0.040291477
-0.3577636 -0.027390234 -0.072468445 -0.27171504 0.12948035 -0.14285876 0.14433874 0.09880203
0.0037279576 0.072043575 0.121574566 0.06346042 0.1275184 -0.025265768 0.04927033 -0.0056586713
-0.005303574 0.0696871 -0.05737821 0.024259243 0.09427503 0.15251957 -0.01775311 -0.03422637
0.059914257 0.024994291 0.107760884 0.07291953 0.14060383 -0.038785145 0.11316292 0.06754747
-0.21948373 -0.116884835 0.07536103 -0.0009699532 -0.0701453 0.015893787 -0.10034298 -0.11998933
-0.08080592 0.07447718 -0.12708117 -0.106724665 -0.10753678 0.077428386 0.1819766 -0.043588802
-0.024694428 0.13661407 -0.08928981 0.20675288 0.106437005 -0.1658617 0.0099515915 -0.077437386
-0.18250397 0.111353114 0.1614343 0.009125933 0.05265318 -0.103206895 0.09287049 0.21137539
0.15803367 0.007540349 0.017446347 -0.036602277 0.19941282 -0.16704217 -0.025672434 0.019111233
0.10664134 2.9197145e-06 -0.14396708 -0.011983557 0.12139948 0.15705352 -0.12519832 0.070596665
0.12605059 0.07107137 -0.0028932542 -0.021702202 -0.05932595 0.083338216 -0.0455129 -0.04170164
-0.15825325 -0.028458858 0.109730676 0.107000396 0.11618481 0.07616252 -0.13722801 -0.004347169
0.23938963 -0.10147093 0.08605883 -0.07427727 -0.0076377383 -0.17413568 0.06758988 0.09331502
0.043323126 -0.06951842 -0.16444467 0.010688762 0.14653732 -0.013098374 -0.18470334 0.11111836
0.16854335 -0.031150013 0.07514088 0.15742607 0.015575352 -0.07226419 0.15020908 -0.121335134
-0.022179648 0.02660874 -0.1393955 -0.16900374 0.1954353 -0.11813609 0.11994581 0.022547046
0.24929768 -0.02805207 0.031156164 -0.11237495 -0.014838028 -0.093028925 0.06183174 -0.09864484
0.17053859 -0.13847081 0.080873236 0.13286668 -0.12939745 -0.11656463 -0.061512675 -0.1655443
0.095745705 -0.0017099828 -0.08725965 0.10528689 0.13191323 -0.051831305 0.0008917898 -0.07932513
-0.13629152 -0.106186904 0.019707479 -0.036944807 -0.085604504 -0.07781686 0.00047524273 -0.09156657
-0.16887687 0.14719485 -0.12232878 -0.10530785 -0.0019338371 -0.086141564 -0.02742344 0.109822944
-0.03283858 -0.1466115 -0.11361926 -0.11677548 0.1109439 0.0010006875 0.111263424 -0.009249926
-0.03645891 0.14976524 -0.03131652 -0.006025408 -0.02182544 -0.0023928434 -0.048631757 -0.14049882
-0.0027336045 0.18459083 0.12254634 0.16996293 0.13667434 0.07137036 -0.12444596 -0.08167333
0.052405477 -0.04756925 0.14305305 0.05242785 -0.05128689 -0.12768786 -0.051981367 0.14907551
0.06366871 0.18814926 0.07559411 0.0729953 0.13431688 -0.049712792 -0.09749266 -0.014324769
-0.04074376 0.0014493018 -0.08034011 -0.08801841 -0.026485333 0.06478676 0.009060115 0.05082293
0.0688487 0.11919748 -0.15174483 0.019298345 -0.11327306 -0.119453266 0.12134741 -0.048212692
-0.0787328 0.13679633 -0.02411705 -0.101288535 -0.09987192 -0.12394939 -0.013646282 -0.15335305
0.008841912 -0.03301321 0.17089991 0.06780609 0.030675381 -0.16394116 0.1510216 0.06279495

bias f4 [32]
00000000: ef37 dd3d 6b76 a23d 1252 aebd 034e d83d
00000010: 9e7d d03d 4cf6 81bc 4e88 0f3d 0ce8 3b3e
00000020: eadb 13be 18a1 6abd 4598 debd 7255 1e3e
00000030: 13f9 143e ea6a ba3d c5d0 9bbd 1842 12be
00000040: 262c a9bd 13ee 1cbd a976 cd3d 21aa 47bd
00000050: f27e 83bc e47c a3bd 9b20 bbbd 57ab c63d
00000060: 4a82 dc3d 41c0 96bd 0760 213d 6ca8 90bd
00000070: 3430 6c3d 2e22 f9bc d088 bb3d 5223 b8bd
0.10801684 0.07932743 -0.085117474 0.105617546 0.101802096 -0.015864514 0.0350421 0.18350238
-0.1443936 -0.057282537 -0.10868887 0.15462282 0.1454814 0.091024235 -0.07608179 -0.14283025
-0.08260374 -0.038312983 0.10032398 -0.048746232 -0.016051743 -0.07982805 -0.091370784 0.09700649
0.10767038 -0.07360888 0.03939822 -0.07063374 0.057663158 -0.030411806 0.09156954 -0.08991112

weight f4 [32, 32]
00000000: 11b1 6c3d bb5f 9a3d 4d20 c8bd 2561 223e
00000010: 36fb ccbc 8426 aebc 5052 ef3d f59d ebbc
00000020: 7f9d 113e b278 adbd 59af 023d 6517 653e
00000030: 6584 003e 9683 cd3d 94c5 af3d dcf7 abbd
00000040: 3876 ae3c b063 34be 4f6d 49bd d22e f23d
00000050: fecf b4bc 3880 99bc 9ced 573d cf38 dbbc
00000060: 2001 803f 28a2 31be b4d9 d0bd 27f6 0a3e
00000070: 1c1b 96bd f1d1 72bd a844 db3d 5dd8 8d3c
00000080: 091e c8bd 4d3e 803d cc96 2b3e 61db 8f3d
00000090: c505 273d d17b 0abd 4024 b3bd 82ab 223e
000000a0: 87fc 553d aaac 2b3e 546c 88bd 7a9a 3f3e
000000b0: ecab 81bd 3798 3cbd 9ec8 133e 7c5c 903c
000000c0: 45c2 0d3e bace 563d 6471 98bc ce9c 40bd
000000d0: 5de2 98bd b502 89bd dca4 15bd 1606 f03d
000000e0: bc2e 863f cfda 72bd 30df be3d 2490 8b3d
000000f0: 1c99 22be 5423 8fbd 4915 eb3c 5077 6e3d
00000100: f61c 34bd 5c50 86be 4e6e a6bd 8d41 6d38
00000110: 0f54 6b3c dce4 983a 164a 54be 0b65 2fbe
00000120: 1d6b ecbd 6fe6 0c3e 2a05 113e 6299 273d
00000130: 5d5d e7bd abf1 d8bd 6eda a83c bd70 103e
00000140: d768 0dbe 09bc 9d3d e5c5 1e3e 19f9 af3d
00000150: 5567 2dbe 3a55 b93d 2105 253e 1ea9 d3bc
00000160: d725 39bc 5c2f d2bd 2fa1 ce3d 593e e7bd
00000170: c039 75bb 8858 723d d0c9 b03d 7ee5 62bd
00000180: bdfa 443c bb3a 423d 44c0 92bc 104a 44bd
00000190: 6bd5 19be 3c09 0fbb dd4c b1bc efad 9fbb
000001a0: 2a73 353d ae3d f63d 2198 3e3d 4eab fb3d
000001b0: 409e 21bc f8c9 b6bc 9e07 253e 2bf4 203e
000001c0: e0c2 7e3c 9abe 003d f8b1 c4bd bc17 163c
000001d0: bafd 16be 4e32 2bbe 2fa9 253e 304b 493e
000001e0: 0c01 623f a27a fa3d ab59 10bd 2c2e 10bd
000001f0: 5c37 51bd ff30 74bd c9e7 513e 119e 0abe
00000200: 5580 68bd aead 403e a5ab 0ebe 31c3 0b3e
00000210: a743 09be eb64 3e3e 5d36 f5bd ba05 a33d
00000220: 9f22 343e cfa8 c03d 4e9f 183e 70c2 333e
00000230: 07e9 1e3e fc90 e73d b2cd 8cbd 130f aa3d
00000240: be93 f53d 645b 643d 0e17 32bd 6087 573d
00000250: 5082 fdbd 4f3b 9ebd caf0 853d 4262 ee3d
00000260: 7c1f 01bf d1f6 213e ccd7 3abd 00ac 543d
00000270: 20bf 5f3c 7f4e 2d3e 0bec 9f3c fbc1 2cbe
00000280: 9110 c43d c3ca 883d aee3 aabd 63a4 d6bd
00000290: f6aa 0f3c 2b71 833c de88 723d 1d71 6abd
000002a0: 88f0 0d3e 5f0f 27bd 504c 663c a100 013e
000002b0: d458 873d b739 333e 903b d9bd 6eb0 073e
000002c0: ad93 11be 3c93 a03d d7ef e4bd 2276 5e3e
000002d0: 1d44 e2bd 80d3 bd3c 28b7 e2bd 2d65 2abd
000002e0: 72fe 25bf 1b4f 943d 7a38 a33d ac05 8e3d
000002f0: 00ba f43c d5d8 f9bd 5f25 8dbc 6610 86bd
00000300: 4e60 9abc 1cc0 843d de1b 69bd a4a7 8f3d
00000310: f13a 343e ab59 f1bd 3cfb 6d3c 4e2f d03c
00000320: 2be9 083e 1ec0 6b3d 18bd 0bbe 2f60 743e
00000330: 407e a73b cd16 07be 80e0 febc e74b c0bd
00000340: 2a9a 2dbe 07d1 053e abe2 d3bd cc89 3f3d
00000350: da2d a13d c3c4 343e 0888 8b3d 7ec9 a63c
00000360: bc04 1fbf 6d24 823c dda7 28bb 9edd e13d
00000370: 4cda 273d 0e84 2dbe e557 7f3d 400d de3d
00000380: dbcb 6c3c 948a 583e 77a2 0fbe a0c5 de3d
00000390: 5d49 4d3c e2c7 b6bd ed63 82bd ffbb 1a3e
000003a0: 58a7 3c3e d18d 12be b245 01be 607f 653e
000003b0: 9c29 203d 92fc 2f3d 1fe9 a4bc 2577 d63d
000003c0: d527 243e 6087 a93d 48d1 983d fdeb 7d3d
000003d0: 0e5d fa3d d108 9ebd 2a69 cd3d 2285 a03c
000003e0: c251 933f 71ce 07be 4178 003e e030 f7bb
000003f0: c977 2e3e 92b1 1fbe 9b48 c03d 6625 85bc
0.05778605 0.075377904 -0.09771786 0.1585737 -0.02502213 -0.0212586 0.11685622 -0.028761843
0.14220236 -0.084702864 0.031905506 0.22372206 0.12550505 0.10034864 0.08582607 -0.08396885
0.021296605 -0.17616153 -0.04917651 0.118253365 -0.022071835 -0.018737897 0.052716836 -0.026760487
1.0000343 -0.17347014 -0.101977736 0.13570462 -0.073293895 -0.059282247 0.107064545 0.017315084
-0.09771354 0.06261883 0.16756743 0.07024265 0.040776987 -0.033809487 -0.087471485 0.15885738
0.052242782 0.16765085 -0.06661287 0.18711272 -0.063316196 -0.0460436 0.14431998 0.017622225
0.13843639 0.052443244 -0.018608756 -0.04702454 -0.0746505 -0.066899695 -0.036534175 0.11719911
1.0483012 -0.059290703 0.093199134 0.06814602 -0.15878719 -0.0698916 0.028696673 0.058219254
-0.04397293 -0.26233184 -0.08126508 5.6566252e-05 0.014363303 0.0011664885 -0.20731387 -0.17128389
-0.11543868 0.13759778 0.14162126 0.04091776 -0.112971045 -0.105929695 0.020611968 0.14105506
-0.13809524 0.077018805 0.15505178 0.085924335 -0.1693395 0.09049459 0.16115238 -0.025837477
-0.011300526 -0.10262939 0.10089337 -0.11291189 -0.0037418455 0.05916646 0.08632243 -0.055394642
0.012022671 0.04741929 -0.017913945 -0.047922194 -0.15022819 -0.0021825572 -0.021643097 -0.0048730294
0.044299282 0.12023483 0.0465318 0.12288533 -0.00986439 -0.022313103 0.16116187 0.15718143
0.0155493915 0.03143177 -0.09604257 0.009160932 -0.14745227 -0.16718408 0.1617782 0.19657588
0.8828285 0.122304216 -0.035241764 -0.035200283 -0.051078185 -0.05961704 0.20498575 -0.1353686
-0.056763012 0.18816254 -0.13932665 0.13648678 -0.13404714 0.18593185 -0.119732596 0.07960077
0.17591332 0.09407198 0.1490452 0.17554641 0.1551858 0.113069504 -0.06875171 0.083036564
0.1199107 0.05575122 -0.043479018 0.052619338 -0.12378371 -0.07726156 0.065400675 0.11639835
-0.50438666 0.15816809 -0.045615956 0.051921844 0.013656408 0.16924475 0.019521734 -0.16870873
0.09573472 0.06679299 -0.08344208 -0.10480573 0.008768788 0.016045174 0.059212558 -0.05723678
0.13861287 -0.040786143 0.01405628 0.12597896 0.066087395 0.17502485 -0.10607064 0.13250896
-0.1421649 0.07840583 -0.11178558 0.21724752 -0.11048148 0.02317214 -0.110700905 -0.041600395
-0.6484138 0.07241651 0.079697564 0.069346756 0.029873848 -0.121995606 -0.017229734 -0.065460965
-0.01884475 0.064819545 -0.05691134 0.07014397 0.1760061 -0.11784681 0.014525231 0.025413182
0.13370197 0.057556264 -0.13646352 0.23864816 0.0051114857 -0.13192292 -0.03111291 -0.09389477
-0.1695334 0.13068019 -0.10345968 0.046762273 0.078700736 0.17653184 0.06813055 0.02035975
-0.621166 0.01588651 -0.002573482 0.11028598 0.04097967 -0.16944906 0.062339682 0.10842371
0.0144529 0.21146613 -0.14026819 0.10877538 0.012529698 -0.08924843 -0.063667156 0.15110777
0.18423212 -0.14311911 -0.12624243 0.22411871 0.03910218 0.04296548 -0.020130692 0.10471944
0.1603082 0.08277774 0.07461792 0.061992634 0.1222478 -0.07716525 0.10029824 0.019594733
1.1509326 -0.13262345 0.12545873 -0.007543668 0.17037882 -0.15595081 0.093888484 -0.016253185

bias f4 [32]
00000000: c1cd ad3c dcb4 85bd d7c3 143d 1ccc 4e3c
00000010: fefa 9bbb 9c46 cc3c f8ff f53d 5edc 913d
00000020: 4d95 fdbd 8214 c3bd 0161 2abd 77d4 203e
00000030: 4ff0 45bd 0b66 0abe f7fd 2abe 5187 c6bd
00000040: 8c92 c63d 0974 0e3c bc18 bfbd ca88 50bd
00000050: 8fdb 82bd 308f b0bb 8032 fb3d 6300 24bd
00000060: 2786 873d 80f6 90bd b654 d6bc 9c1c 3c3e
00000070: 166d 7e3d da53 38be 0f20 31bd 2cf5 243e
0.021216275 -0.06528637 0.03631958 0.012621906 -0.004760145 0.024936013 0.12011713 0.0712211
-0.123819925 -0.09525396 -0.041596416 0.15706049 -0.04832488 -0.13515489 -0.16698442 -0.09693778
0.0969592 0.008694657 -0.093308896 -0.050911702 -0.06389534 -0.005388163 0.122654915 -0.04003943
0.066173844 -0.07078266 -0.02616344 0.18370289 0.06211575 -0.18000737 -0.043243464 0.1610915

weight f4 [101, 32]
00000000: 324a 15bc 1dd8 443e e5bd 7fbf d169 fc3d
00000010: 18ea a4bf e9e7 963d 1863 25be 1a71 6ebe
00000020: 884c abbf 07ce 56bc f8f6 b4bf 2058 bc3d
00000030: 9375 613b 0911 713d 3dcf a9bf 46ca 0c3d
00000040: 5af1 a0bf f6a3 f2bd 4111 a2bf 17c7 2a3e
00000050: c101 ee3c 53ca 8fbf ac5f 9ebf 930c cabf
00000060: 9afc 753d 39f6 30bc 3e70 8dbf c78c a3bd
00000070: 30bc b4bf 1aeb 8bbf 9f80 ac3d b27f e4bd
00000080: 134f e03d 9295 2d3d 5ef8 98bf 70b9 f03d
00000090: 43ca c3bf b8e4 eebc ba8b 7b3d 11a7 31be
000000a0: a277 b5bf 1bb3 87bd 1c97 99bf 1b80 683e
000000b0: fda2 ed3d 3df1 1a3b 875f a5bf 6fd3 bbbd
000000c0: 4f16 abbf 06f4 4b3e dab8 a4bf 1120 3e3e
000000d0: 7bb5 99bd dbd0 9fbf 85b4 b8bf 6b1f a3bf
000000e0: abb1 443e 6cf1 593e 3aad 87bf 1da2 a43d
000000f0: 0f53 b7bf ad6e 99bf b10e 153e 6094 6cbd
00000100: 13c2 843d a613 4f3e 12f7 8fbf b552 363e
00000110: 3447 b1bf e861 72bd e3d7 b8bc 1577 10bd
00000120: 9844 c0bf f8b3 aebd 74ea a0bf 4762 3b3e
00000130: 051e 6a3d bc2d a4bd 950b a4bf 2055 063d
00000140: ac5b afbf 33e1 633e 60b0 b6bf 4724 2c3c
00000150: f3a1 05bd 84c0 8dbf 8774 a1bf 484e bebf
00000160: c458 913c b80c 173e 7f9c a5bf b870 853e
00000170: 7ef7 9abf 329c 8dbf d4a9 f63d ad0e 50be
00000180: 267c 373d 0b86 b33d 8293 83bf 5658 1dbe
00000190: 0b25 bfbf 52f7 c53d 2f69 1f3d 4aed 13be
000001a0: ba39 a5bf 0c1e b6bd ac0c b3bf 650e aa3c
000001b0: d6fc 3bbd 0c29 55bd d475 abbf c6ac 543e
000001c0: 07ec a8bf 519c adbd fc73 b2bf 3f35 1b3e
000001d0: 237e f3bd 647f 8fbf 7861 acbf c41f b8bf
000001e0: 334b dabd 37aa febc 1948 93bf cebf 343d
000001f0: 3335 bcbf 4b37 85bf ed72 e0bd 638c 8fbe
00000200: 0379 6cbc 5320 1e3e 939d 93bf d6ec 03be
00000210: 8515 c5bf 6f4a 01be 2c57 073d fbf6 2bbd
00000220: 6e5a 9bbf 3176 00be ea4a 98bf b079 813e
00000230: 6e73 e43d 62c0 ca3d 3dee a0bf 6d9f a03d
00000240: 56a6 a8bf 35fe e33d 1f2e b0bf ae2d b23c
00000250: 7809 353e e84d 99bf b4c5 abbf c7ba bfbf
00000260: 80ef 5ebc 8e64 1c3d 8ab0 94bf 563c 1a3e
00000270: 423f aabf 3646 94bf 7b65 5dbd a00a 33be
00000280: b018 69bd f0e9 9cbd 763a 8fbf 93be 87bc
00000290: 293e a7bf 346c e4bd c307 02bd 6106 04be
000002a0: c94c a5bf 2937 1d3e 4105 aabf 253f 383e
000002b0: 12fb b23d 3e76 cf3d a565 a9bf b115 113d
000002c0: fa07 adbf f56c 853d 1617 a3bf 1545 4d3e
000002d0: 3887 de3d 708f a1bf a7d7 96bf ecb2 c1bf
000002e0: 0673 533e fcd6 433e a27b a2bf f960 75bd
000002f0: a347 bebf 0f5e 85bf 88eb 443d 4b38 57be
00000300: ce6f a33d e170 06bc 9043 9dbf 7179 3e3e
00000310: 4cf0 c4bf de0f 06bd 70ac 2a3e dce5 94bd
00000320: ed53 9ebf 7cf3 203d 7d89 a9bf a1e7 d13c
00000330: dc8e 233e b54a c43d dc03 a8bf f8ca 823d
00000340: db90 91bf 984d 323e 448f 9dbf 465a 293e
00000350: 2227 163e ecb0 94bf 7771 93bf 37f6 babf
00000360: c453 e43b fe3e 90bc c61b 9cbf 6f4f f9ba
00000370: 4475 a2bf 254b 91bf 2f4a d1bc b8bb 13be
00000380: 8336 283e a6d7 ccbc ad87 9abf ed4a 363c
00000390: 63ce b0bf 948b adbd a4e4 423c 8ed7 0dbe
000003a0: 93e2 bfbf 7519 18bd 454c b1bf ca67 a0bd
000003b0: 6fa9 6a3d 4278 b13d 57bc 98bf 07a9 683e
000003c0: 4ee5 aabf 4439 2a3e 1e78 abbf 2a77 543e
000003d0: 335f 52bd 9863 9abf c6ae 94bf 71c8 b1bf
000003e0: ab82 403e b666 8abd bff7 8bbf e74d 3c3d
000003f0: eb69 a3bf 2a9a 91bf bd0f f23c 77fb ccbd
-0.009111928 0.19223066 -0.9989913 0.123248704 -1.288394 0.07368452 -0.16151083 -0.23285332
-1.338273 -0.013110644 -1.4137869 0.09196496 0.0034402355 0.058854137 -1.3266369 0.03437259
-1.2573655 -0.11847679 -1.2661515 0.16677509 0.02905357 -1.123362 -1.2372947 -1.5785087
0.060055353 -0.010800892 -1.1049879 -0.079858355 -1.411993 -1.0931122 0.0842297 -0.111571684
0.10952582 0.04237897 -1.1950796 0.117541194 -1.52961 -0.029161796 0.06141255 -0.17348887
-1.4177134 -0.066259585 -1.199924 0.22705118 0.11603353 0.0023642324 -1.2919778 -0.09171187
-1.3366183 0.19917306 -1.2868912 0.1856692 -0.07505318 -1.2485613 -1.443009 -1.2743963
0.192084 0.21283501 -1.059974 0.08038733 -1.4322222 -1.19869 0.14556386 -0.05775869
0.06482329 0.20222339 -1.1247275 0.17804988 -1.3849854 -0.059175402 -0.02256388 -0.035269815
-1.5020933 -0.0853042 -1.257155 0.18299209 0.057157535 -0.08016536 -1.2816035 0.032796025
-1.3699851 0.22253875 -1.4272575 0.010506696 -0.03262515 -1.1074376 -1.2613686 -1.486764
0.017742522 0.14750946 -1.2938384 0.2606256 -1.2106779 -1.1063292 0.12044111 -0.20318098
0.04479613 0.08765801 -1.0279391 -0.15365729 -1.493318 0.09666313 0.03891867 -0.14445987
-1.2908242 -0.0889245 -1.3988242 0.020758817 -0.04589542 -0.0520411 -1.3395333 0.20769033
-1.319703 -0.084770806 -1.3941646 0.1515703 -0.11889293 -1.1210752 -1.3467245 -1.4384694
-0.10658874 -0.031087024 -1.1506377 0.04412823 -1.4703735 -1.0407499 -0.1095942 -0.28036794
-0.014433148 0.15442018 -1.1532463 -0.12883314 -1.5397192 -0.1262605 0.033042118 -0.041983586
-1.2136972 -0.12545086 -1.1897862 0.25288153 0.11154829 0.09899975 -1.2572705 0.07842908
-1.3175762 0.111324705 -1.3764075 0.021750297 0.17679393 -1.19769 -1.3419709 -1.4978875
-0.013606906 0.038181834 -1.1616375 0.15062079 -1.3300555 -1.1583927 -0.054051857 -0.17484522
-0.05690831 -0.076618075 -1.1189716 -0.016570365 -1.3065845 -0.111534506 -0.031745683 -0.12893058
-1.2914058 0.15353073 -1.3282853 0.17992838 0.08739294 0.10129975 -1.3234144 0.035421077
-1.3518059 0.065149225 -1.274142 0.20045884 0.10865635 -1.2621899 -1.1784562 -1.5132728
0.20649347 0.19124979 -1.269398 -0.059906933 -1.4865612 -1.041933 0.048076183 -0.21017568
0.079803094 -0.008205623 -1.2286243 0.18601014 -1.5385833 -0.032729976 0.16667342 -0.07270405
-1.2369362 0.039294705 -1.3245083 0.025623145 0.15972465 0.09584562 -1.3126178 0.063863695
-1.1372331 0.17412412 -1.2309346 0.16538343 0.14663365 -1.1616492 -1.1519002 -1.4606389
0.0069679935 -0.017608162 -1.2195976 -0.0019020865 -1.2692037 -1.1351057 -0.025548069 -0.14427078
0.16427045 -0.025005173 -1.2072655 0.011126262 -1.3812984 -0.08473888 0.0118953325 -0.13851759
-1.499102 -0.037133653 -1.3851401 -0.07832296 0.05729049 0.086655155 -1.1932477 0.22720729
-1.3351228 0.16623408 -1.3396032 0.20748582 -0.05136032 -1.2061644 -1.1615837 -1.3889295
0.18799846 -0.06757872 -1.0934981 0.04597273 -1.2766699 -1.1375172 0.02954852 -0.100089006

bias f4 [101]
00000000: 328c b0bf 126d 8dbf 93b6 99bf 75f3 a3bf
00000010: 908e 9ebf 78d1 93bf 5b8d a6bf 8399 96bf
00000020: 34af b3bf a038 88bf 5094 b6bf db55 8ebf
00000030: c268 94bf 485d b9bf 602f a1bf 170a a3bf
00000040: e2a3 adbf 7e04 a9bf 9e1f 90bf 278e a2bf
00000050: b1d6 90bf 13b0 9bbf e203 8bbf cd78 97bf
00000060: b1b1 99bf f534 a0bf 6c5b b1bf 2ca2 b1bf
00000070: c93c 8dbf c18f a3bf 062b a9bf 870a a7bf
00000080: 742c b0bf 163a 9ebf a2ef 8bbf f78c 9fbf
00000090: 84ef 95bf 58de 8ebf ddfe a3bf c6fe 8bbf
000000a0: fec7 a6bf cd24 9ebf cf2c 9cbf 5a77 9cbf
000000b0: 0648 95bf e3f6 adbf e2b7 a7bf f188 97bf
000000c0: 5fd8 9ebf c4b6 87bf bfdb a9bf 0b0b 8fbf
000000d0: 23fe a4bf 28ef 8bbf 13e5 abbf 6b54 9fbf
000000e0: a760 85bf d1c7 92bf 10c5 8cbf 2737 9dbf
000000f0: 2894 aebf 0fae 8abf 029f 8ebf 4d96 b5bf
00000100: 1099 a6bf dedd 9ebf 5fd7 a4bf f9ee 92bf
00000110: 27a7 9ebf 33c3 a4bf 8736 b1bf a023 9dbf
00000120: 6c3c a2bf 0967 8bbf 8d61 b5bf e1a3 9abf
00000130: d3f2 a1bf 7cb5 abbf 04ec a7bf e4f4 8dbf
00000140: c3ee a5bf 720a a8bf 0a87 8bbf 79b4 98bf
00000150: 0a19 a1bf c057 a0bf 6740 97bf 4707 aabf
00000160: f62b adbf 1fd4 b5bf 116a a5bf 84e7 93bf
00000170: 5e57 b6bf 2e09 b6bf ac02 97bf cd63 92bf
00000180: a58d 97bf fdf3 a3bf d45a b4bf f79c 96bf
00000190: 6087 abbf
-1.3792784 -1.1048911 -1.2008842 -1.2808672 -1.2387257 -1.15483 -1.3011888 -1.1765598
-1.4037843 -1.064228 -1.4264011 -1.1119951 -1.159447 -1.4481592 -1.2592583 -1.2737454
-1.3565638 -1.3204496 -1.1259649 -1.2699631 -1.1315519 -1.2163109 -1.086056 -1.183374
-1.2007352 -1.2516161 -1.3856025 -1.3877616 -1.1034175 -1.2778245 -1.3216255 -1.3050088
-1.3763566 -1.2361476 -1.0932505 -1.2464894 -1.1713719 -1.1161604 -1.2812153 -1.0937126
-1.3029783 -1.2354981 -1.2201174 -1.2223923 -1.1662605 -1.3590969 -1.3102992 -1.1838666
-1.2409781 -1.0602651 -1.3270186 -1.1175245 -1.2890056 -1.093236 -1.3429283 -1.2447637
-1.0420121 -1.1467229 -1.0997639 -1.2282456 -1.3638964 -1.0834368 -1.1142275 -1.4186493
-1.3015461 -1.2411458 -1.2878226 -1.1479179 -1.2394761 -1.287207 -1.3844765 -1.2276497
-1.2674689 -1.0890819 -1.4170395 -1.2081262 -1.2652229 -1.341476 -1.3118901 -1.109036
-1.2963489 -1.3128188 -1.0900586 -1.1930076 -1.2585766 -1.2526779 -1.1816529 -1.3283471
-1.3529041 -1.4205359 -1.2922994 -1.1555028 -1.4245412 -1.4221551 -1.179769 -1.1436707
-1.1840101 -1.2808834 -1.4090219 -1.1766652 -1.3400688
